saved_models/cnn/cnn_[layer3-base32].pt (torch, 135455 bytes, 17 tensors)

cnn.0.weight f4 [32, 1, 3]
0	0x3e38c9f8	0.18045795
1	0x3da57ebc	0.08080813
2	0xbdbb8898	-0.091569126
3	0x3e688c9d	0.2270989
4	0xbd64b16d	-0.05583327
5	0xbc7f418d	-0.015579593
6	0xbe52198d	-0.2051756
7	0x3e08be0a	0.13353744
8	0x3e8d2f6e	0.27575248
9	0xbe92cdf0	-0.28672743
10	0x3e9b4ee6	0.30333632
11	0x3ca72ed9	0.02040808
12	0x3e502b80	0.20329094
13	0x3c8041ab	0.015656313
14	0x3daf79c9	0.085681506
15	0xbd1acfe2	-0.03779591
16	0x3e3ef092	0.18646458
17	0x3ca18cd6	0.019720476
18	0xbddd35e5	-0.10801295
19	0x3de13f73	0.1099843
20	0xbe33d06b	-0.17559974
21	0xbd6009f2	-0.054696985
22	0xbe2c5189	-0.16827978
23	0x3e7a4575	0.24440558
24	0xbe0fcfb3	-0.14044075
25	0xbcfa1970	-0.030529708
26	0xbccce0ad	-0.025009478
27	0xbe006ebf	-0.12542246
28	0x3d927fe2	0.07153298
29	0xbe3e3704	-0.18575674
30	0x3e85681f	0.26056
31	0xbeabb8a4	-0.33539307
32	0x3e492117	0.19641529
33	0x3d42b079	0.04753158
34	0xbde4d296	-0.111729786
35	0x3e2cfd1d	0.1689343
36	0x3d79dfa1	0.061004285
37	0x3e1515ea	0.14559141
38	0x3ab12682	0.0013515505
39	0xbddced32	-0.10787429
40	0x3e1bfdf7	0.15233599
41	0xbe09482c	-0.13406438
42	0x3d5db908	0.054131538
43	0x3e361dcb	0.17784803
44	0x3d404531	0.046940986
45	0xbe22a7c6	-0.15884313
46	0x3e67258e	0.2257292
47	0x3dc95889	0.0983134
48	0x3da4f1e2	0.08053948
49	0xbdd9c225	-0.10632733
50	0xbe8a5f34	-0.2702576
51	0xbdd9edce	-0.10641061
52	0xbe88429f	-0.26613328
53	0x3eabd1ea	0.3355859
54	0x3d905df1	0.07049168
55	0x3ddc744a	0.10764368
56	0x3d9033b6	0.07041113
57	0x3d97869b	0.07398721
58	0x3e82dd1f	0.25559327
59	0xbe9cce13	-0.30625972
60	0x3d890c26	0.0669177
61	0xbe799d34	-0.24376374
62	0x3e1e1f3c	0.15441602
63	0xbe1ccd47	-0.15312682
64	0x3e2491a2	0.1607118
65	0xbdbd2c32	-0.09236945
66	0x3eb61630	0.35563803
67	0xbe0cc9ea	-0.13748899
68	0xbe4196f5	-0.18905242
69	0xbe765801	-0.24057008
70	0x3e8534bf	0.26016805
71	0x3e0b3bba	0.13597003
72	0x3ea37d49	0.31931522
73	0xbe23fe8a	-0.16015068
74	0xbe81615a	-0.25269586
75	0xbe50b0b8	-0.20379913
76	0xbe8c782c	-0.27435434
77	0x3e17345f	0.14766072
78	0x3de066ca	0.109571055
79	0x3e918a8f	0.28426024
80	0xbe357b8d	-0.17722912
81	0xbe8db477	-0.27676746
82	0x3e5ad344	0.21369654
83	0xbe091e96	-0.13390574
84	0x3e1c7158	0.15277612
85	0xbd699060	-0.057022452
86	0x3e0e5e27	0.13903104
87	0xbe1e625c	-0.15467209
88	0xbdb47a85	-0.08812431
89	0x3e15ce35	0.14629443
90	0x3d5b1bc3	0.053493273
91	0xbd4c2d69	-0.049847994
92	0x3e3898e7	0.18027078
93	0x3e8b9c91	0.27267888
94	0xbea760b4	-0.32690966
95	0xbe0c28e3	-0.13687472

cnn.1.weight f4 [32]
0	0x3ee1ddae	0.4411444
1	0x3f1168c9	0.56800514
2	0x3f2596f2	0.6468345
3	0x3f02d6c4	0.51108956
4	0x3f18ad12	0.59639084
5	0x3f00262d	0.5005825
6	0x3eea1c48	0.45724702
7	0x3eed1ba7	0.4631016
8	0x3ec775b0	0.38956976
9	0x3edb9069	0.42883614
10	0x3f060b68	0.52361155
11	0x3ed30364	0.41213524
12	0x3effd301	0.4996567
13	0x3f008741	0.5020638
14	0x3f01dd03	0.5072786
15	0x3f0b6367	0.5444855
16	0x3f0f8cce	0.56074226
17	0x3f142c12	0.57879746
18	0x3f0802ea	0.53129447
19	0x3f1b6629	0.6070276
20	0x3f01c5a8	0.50692225
21	0x3ee9119e	0.45521253
22	0x3f11d53c	0.56965995
23	0x3f068feb	0.5256335
24	0x3edae0ec	0.42749727
25	0x3f3b5221	0.73172194
26	0x3f1a17e8	0.6019273
27	0x3f0e3b37	0.55559105
28	0x3efe1213	0.49623165
29	0x3ecf1fac	0.4045385
30	0x3ee5122a	0.4474042
31	0x3f20e3d5	0.62847644

cnn.1.bias f4 [32]
0	0xbdcfde59	-0.10149831
1	0xbd85ee29	-0.06539566
2	0xbd7f3736	-0.062308513
3	0x3d500712	0.050787993
4	0xbdd62824	-0.10456875
5	0xbd4cd997	-0.050012197
6	0xbe242432	-0.16029432
7	0xbd9cef2d	-0.07662807
8	0xbd82c427	-0.06385069
9	0xbd086c57	-0.033306446
10	0x3cd28b83	0.02570129
11	0xbdb9e2cf	-0.090764634
12	0xbdf19359	-0.117956825
13	0xbcc0e16e	-0.023544993
14	0xbe205319	-0.15656699
15	0xbd877293	-0.0661365
16	0xbd964fed	-0.073394634
17	0xbc9d3d70	-0.019194335
18	0xbdb92698	-0.09040564
19	0xbdacba72	-0.08433999
20	0xbd7b2469	-0.06131402
21	0x3cfba770	0.030719489
22	0xbe05f5dc	-0.13082069
23	0xbdeff9e2	-0.11717583
24	0xbceefa9f	-0.02917224
25	0xbc524bea	-0.012835482
26	0x3d198795	0.037482817
27	0xbe41adf9	-0.18914022
28	0xbdad8fd5	-0.084746994
29	0xbda75f65	-0.08172492
30	0xbcb5f12c	-0.022209726
31	0xbd9d9278	-0.07693952

cnn.1.running_mean f4 [32]
0	0x3c67638c	0.014122855
1	0x3c524c35	0.012835552
2	0x3c89528d	0.016762996
3	0x3b4322eb	0.0029775451
4	0x3cce4bd2	0.025182638
5	0x3c63e7b3	0.013910222
6	0xbc6b5b0b	-0.014364968
7	0x3ad64cc5	0.0016349783
8	0xbc84406d	-0.016144002
9	0xbca1a9b7	-0.019734247
10	0x3c2484df	0.010041445
11	0x3c0ead6b	0.008708338
12	0x3c8c7f04	0.01715041
13	0xbbf3a230	-0.0074351057
14	0x3cbc7c43	0.023008471
15	0x3c62530c	0.013813745
16	0xbcc85b05	-0.024457464
17	0xbb46ac53	-0.0030315116
18	0x3ca7e2bd	0.02049386
19	0x3b0bee36	0.0021351702
20	0xbaf7cacc	-0.0018905043
21	0xbbe74964	-0.0070583094
22	0x3b1eb905	0.0024219167
23	0x3c547964	0.012968395
24	0xbbf9b9c1	-0.0076210205
25	0xbcdef975	-0.02721856
26	0x3c933aa8	0.017972305
27	0xbc8579a3	-0.016293352
28	0x3c9df494	0.019281663
29	0xbc036caf	-0.008021518
30	0x3c7828d0	0.015146449
31	0xbc815bd8	-0.015790865

cnn.1.running_var f4 [32]
0	0x3d0b277b	0.0339732
1	0x3d00e5c1	0.03146911
2	0x3d8d23d0	0.06891596
3	0x3d556797	0.052100744
4	0x3d900de0	0.070338964
5	0x3ce86616	0.02836899
6	0x3d05a29c	0.03262578
7	0x3ce330f0	0.027733296
8	0x3cf291ff	0.029610632
9	0x3d46dca5	0.048550267
10	0x3d8c5ce6	0.068536565
11	0x3c9aa5b9	0.01887785
12	0x3d0ac9b2	0.033883758
13	0x3c98c8cf	0.01865044
14	0x3d6faff4	0.05851741
15	0x3d30637f	0.043063637
16	0x3da9ae46	0.08285193
17	0x3d75eee0	0.060042262
18	0x3d336d26	0.043805264
19	0x3d4cbbbd	0.04998373
20	0x3ccddab8	0.025128707
21	0x3ca24187	0.019806636
22	0x3d6d3f5d	0.057921756
23	0x3d71f449	0.05907086
24	0x3d899d58	0.06719464
25	0x3ddfb729	0.10923607
26	0x3d87e0ac	0.0663465
27	0x3d7d2a1c	0.061807737
28	0x3d3819f2	0.04494662
29	0x3cba8f56	0.022773426
30	0x3cfd8ce9	0.03095098
31	0x3da9ce9b	0.0829136

cnn.4.weight f4 [64, 32, 3]
0	0x3cf6b514	0.030115642
1	0xbcb20b30	-0.02173385
2	0xbcb937a5	-0.022609541
3	0xbd8460d3	-0.0646378
4	0xbd432c17	-0.04764947
5	0x3d2a1d58	0.04153189
6	0xbc87d1dd	-0.016579563
7	0xbbd96f39	-0.006635573
8	0xbd0c3548	-0.0342305
9	0x3b86db0d	0.0041154684
10	0xbcfd6b48	-0.030934945
11	0xbd2f02cf	-0.042727288
12	0xbd70dcf7	-0.05880448
13	0xbd7f9c13	-0.062404703
14	0x3d873874	0.066025645
15	0xbbaacba8	-0.005212266
16	0xbc3ad346	-0.011402911
17	0xbd412bea	-0.04716102
18	0xbd6a5d09	-0.05721763
19	0xbd35fbcd	-0.04442959
20	0x3ce711b5	0.028206686
21	0xbb173207	-0.002307059
22	0x3cc6cc11	0.024267228
23	0xbd4d9db0	-0.05019921
24	0xbd264702	-0.040595062
25	0xbc9a7050	-0.018852383
26	0x3bd1d469	0.006403495
27	0xbd611181	-0.054948334
28	0xbd5ae944	-0.053445116
29	0xbc18d62e	-0.009328408
30	0x3d40b0af	0.0470435
31	0xbdd9a0f6	-0.10626404
32	0x3da6ffcc	0.08154258
33	0x3cee58b4	0.029095031
34	0x3baad9cc	0.0052139517
35	0x3d7585d0	0.059942067
36	0xbce7ed10	-0.028311282
37	0x3c8eb0ee	0.017418351
38	0xbd09d365	-0.033648867
39	0xbc5ecc58	-0.013598524
40	0xbda17fb1	-0.07885683
41	0xbcf1b26b	-0.029504022
42	0xbc8b87e4	-0.017032571
43	0xbc208114	-0.0097964
44	0xbbd294a1	-0.0064264094
45	0xbbbabaf5	-0.0056985565
46	0x3cc0451e	0.023470458
47	0xbd1b47b0	-0.037910163
48	0xbbdcd8b7	-0.0067397016
49	0xbc0a55ee	-0.008443339
50	0x3ccc0d51	0.024908694
51	0x3ccc8af8	0.02496861
52	0x3dcd0afd	0.100118615
53	0xbd8e82e9	-0.06958563
54	0xbc06b7b4	-0.008222509
55	0xbcd74b5f	-0.026281057
56	0x3aaeff5d	0.0013351251
57	0xbb4caa2f	-0.0031229367
58	0x3c5465c7	0.012963719
59	0xbd8cc94e	-0.06874333
60	0x3da0bc48	0.07848412
61	0xbd036530	-0.03207892
62	0x3d2148a1	0.039375905
63	0xbcb87d58	-0.022520706
64	0x3c721339	0.014775091
65	0x3cfd90ef	0.030952899
66	0xbbafeeb0	-0.00536903
67	0xbd0e9905	-0.0348139
68	0xbc5e51a2	-0.0135692675
69	0x3a901aaf	0.001099428
70	0xbc839fb4	-0.016067363
71	0xbc5d8a07	-0.013521678
72	0x3cc1d84e	0.023662712
73	0xbd24606d	-0.04013102
74	0xbd76a9d0	-0.06022054
75	0xbc84d501	-0.01621485
76	0x3d448cc0	0.047985792
77	0xbc4f882c	-0.012666743
78	0xbb83eda9	-0.004026134
79	0xbbcd6832	-0.0062685246
80	0xbdcf03dd	-0.10108159
81	0xbbcbaf3b	-0.0062159575
82	0x3c4b2a25	0.012400185
83	0xbc9d8bdb	-0.019231727
84	0x3d018b3d	0.03162693
85	0xbd2d543a	-0.042316653
86	0x3d27b872	0.040947385
87	0xbd2b1d04	-0.04177572
88	0x3d60131c	0.054705724
89	0xbbcd97e6	-0.006274211
90	0x3ce242ef	0.027619807
91	0xbcd85768	-0.026408866
92	0x3cf98242	0.03045762
93	0x3d39db6c	0.045375273
94	0xbd1b99d4	-0.0379885
95	0xbd0cf9d7	-0.034417953
96	0x39dca69e	0.0004208581
97	0x3c4fa503	0.012673619
98	0x3b8a4704	0.0042198915
99	0xbb689567	-0.0035489441
100	0xbd8bfe6f	-0.06835639
101	0x3c3c162d	0.0114798965
102	0xbcc3e91b	-0.023914864
103	0xbcbe8fa9	-0.023261862
104	0xbd8971fb	-0.06711193
105	0x3c3355f9	0.01094579
106	0x3d7eea22	0.062235005
107	0x3c9c61f5	0.019089678
108	0x3c64cafc	0.013964411
109	0xbb441849	-0.0029921702
110	0x3c2c25cd	0.010507059
111	0xbc7f187f	-0.015569805
112	0x3d01b48b	0.03166632
113	0x3c248501	0.010041476
114	0xbbced3bb	-0.0063118613
115	0x3c80447a	0.015657652
116	0xbd5b72e0	-0.05357635
117	0xbd3384cc	-0.043827817
118	0xbc3ec6a4	-0.011644039
119	0x3d0160ab	0.03158633
120	0x3bb04ebc	0.0053804796
121	0xbd06a0fd	-0.032868374
122	0x3c18c2f8	0.009323828
123	0xbd0b91bc	-0.03407453
124	0xbcd0f862	-0.025509063
125	0xbab8b27a	-0.0014091276
126	0x3c1c0889	0.009523519
127	0xbd294e72	-0.041334577
128	0xbcf0ba0f	-0.029385595
129	0x3c011ff0	0.00788115
130	0x3c05f850	0.008176878
131	0x3cb90e1b	0.022589734
132	0xbc926ca7	-0.017874075
133	0xbcb8b33b	-0.022546401
134	0xbb73330d	-0.0037109286
135	0x3c8fd942	0.017559651
136	0x3d64fd35	0.05590554
137	0xbb1e006f	-0.0024109145
138	0x3c16685d	0.009180156
139	0x3cb00e4c	0.021491192
140	0x3c75c351	0.01500018
141	0xbc54a0aa	-0.012977758
142	0xbd035ef6	-0.032072984
143	0xbcecc1a6	-0.028900933
144	0x3c3a5f41	0.011375249
145	0xbcf83b46	-0.030301701
146	0xbd93f203	-0.072238944
147	0xbc13681a	-0.008996988
148	0xbc649390	-0.013951197
149	0xbd04e1ac	-0.03244178
150	0xbd07ce83	-0.03315593
151	0x3ce6c7df	0.028171478
152	0x3c1b4c05	0.009478574
153	0x3d911e01	0.07085801
154	0x3b850947	0.004059944
155	0xbcb5f2a6	-0.02221043
156	0x3c53945b	0.012913789
157	0xbd43206c	-0.04763834
158	0x3c3ce303	0.011528733
159	0xbd04ada9	-0.032392178
160	0x3d62635f	0.05527055
161	0xbd1aa1a9	-0.037751827
162	0x3d5f4f40	0.054518938
163	0x3c5df8e7	0.0135481125
164	0xbbd64229	-0.0065386486
165	0xbc460613	-0.012086409
166	0x3cef0f0c	0.02918198
167	0xbc626447	-0.013817853
168	0x3cc213d8	0.023691103
169	0x3c28d4f0	0.0103046745
170	0xbd92a06b	-0.071595035
171	0x3b8ec732	0.004357242
172	0xbccf5e0a	-0.025313396
173	0xbd6ab9e3	-0.05730618
174	0x3d2cd3c6	0.04219415
175	0xbd90d1c1	-0.070712574
176	0x3d80bffa	0.062866166
177	0x3c92f1eb	0.017937621
178	0x3d864cd1	0.0655762
179	0xbc40437c	-0.0117348395
180	0xbd103d51	-0.035214726
181	0xbb090e30	-0.0020912997
182	0x3cd9d292	0.026589666
183	0xbc8ce89b	-0.017200759
184	0xbd09b230	-0.0336172
185	0xbd6fd068	-0.05854836
186	0xbcaed063	-0.0213396
187	0xbc91fbc9	-0.017820256
188	0xbaa29423	-0.0012403767
189	0xbd22f877	-0.039787736
190	0xbde6933c	-0.112585515
191	0xbc3fc566	-0.011704778
192	0x39aad5e9	0.00032584302
193	0x3d0e6343	0.034762632
194	0xbd4098af	-0.04702061
195	0x3d8b2e80	0.067959785
196	0xbd85d07d	-0.065339066
197	0xbd42590b	-0.0474482
198	0xbd1cfad6	-0.038325153
199	0x3ae9d3be	0.0017839593
200	0xbdc0e79a	-0.094191745
201	0x3b38357a	0.0028108046
202	0xbd433b0b	-0.04766373
203	0xbbd6c43d	-0.006554155
204	0x3d20dcbf	0.03927302
205	0x3c31716e	0.010830266
206	0x3b810ff2	0.0039386684
207	0xba8927c5	-0.0010464123
208	0xbceb7fb1	-0.028747411
209	0x3d07885e	0.033089034
210	0xbd8ccdbb	-0.068751775
211	0xbce059b4	-0.027386524
212	0xbcd03fee	-0.025421109
213	0x3d3f1611	0.046651904
214	0x3b34d8c5	0.0027595025
215	0x3c97fb77	0.018552525
216	0xbd1ebf7b	-0.03875683
217	0xbce5e927	-0.028065277
218	0x3c8f1cf2	0.017469857
219	0xbd0aae67	-0.03385773
220	0xbc6218c8	-0.013799854
221	0x3bf6a96e	0.007527522
222	0x3cbf02f5	0.02331684
223	0xbb9a7650	-0.004713811
224	0x3c523d67	0.012832022
225	0xba096c35	-0.00052422594
226	0xbcfb5b96	-0.03068332
227	0x3c836193	0.016037738
228	0xbd356e1e	-0.04429447
229	0x3cc2eed1	0.023795517
230	0xbc9d7ba0	-0.019223988
231	0xbdcd6185	-0.10028366
232	0xbd1cd97d	-0.03829335
233	0x3ca7a325	0.020463536
234	0xbd231fc6	-0.039825223
235	0x3d1c2350	0.038119614
236	0x3c90fefa	0.017699707
237	0xb95974c9	-0.00020738239
238	0x3bd48dfe	0.0064866534
239	0xbcafbd9d	-0.02145272
240	0xbd8ef477	-0.06980222
241	0xbb5b5dce	-0.003347266
242	0xbd854763	-0.065077566
243	0x3d006975	0.03135057
244	0x3aaac863	0.0013029691
245	0x3c84e940	0.016224504
246	0xbd71dce7	-0.05904856
247	0x3b51e6da	0.0032028467
248	0x3c46c219	0.012131237
249	0xbd759698	-0.05995807
250	0x3d9d9a27	0.07695418
251	0xbcc6b6bd	-0.024257058
252	0x3d798340	0.060916185
253	0x3d05e388	0.032687694
254	0x3d6d1ef9	0.057890866
255	0xbd34a8d1	-0.04410631

cnn.5.weight f4 [64]
0	0x3ed9fe7e	0.42576975
1	0x3e9d8a7b	0.30769715
2	0x3ecdf924	0.40229142
3	0x3ee98e88	0.45616555
4	0x3eb6767a	0.35637265
5	0x3ecbda07	0.3981478
6	0x3e9fefd8	0.31237674
7	0x3ea44fbc	0.32092083
8	0x3ebea8a1	0.3723803
9	0x3ecdc26d	0.40187398
10	0x3eaa202b	0.33227667
11	0x3efe4e00	0.49668884
12	0x3e93abe0	0.28842068
13	0x3eaedac3	0.34151277
14	0x3ee845d7	0.45365784
15	0x3ea82cec	0.32846773
16	0x3ec454aa	0.38345844
17	0x3e9d3873	0.3070713
18	0x3ee31816	0.44354314
19	0x3ee447f7	0.44586155
20	0x3ebaa9e5	0.36457744
21	0x3ed04a01	0.4068146
22	0x3eb5dcd7	0.3552005
23	0x3eecffd3	0.46288928
24	0x3e8d16c8	0.27556443
25	0x3e5d89a2	0.21634534
26	0x3e31bcf9	0.17357244
27	0x3f0874f3	0.5330345
28	0x3e9aff4f	0.3027291
29	0x3ed966ae	0.4246115
30	0x3ecb2d99	0.39683226
31	0x3e9c905b	0.30578884
32	0x3ee5e64a	0.4490226
33	0x3e9ad5c8	0.30241227
34	0x3e3df783	0.1855145
35	0x3e7bd51e	0.24593017
36	0x3ef5376d	0.4789385
37	0x3ee1240d	0.43972817
38	0x3ea865a7	0.32890055
39	0x3eae81ee	0.34083503
40	0x3e9118a5	0.28339115
41	0x3e73ff7a	0.23827925
42	0x3f02491d	0.5089281
43	0x3eca8135	0.39551702
44	0x3e7b9918	0.2457012
45	0x3ebbec96	0.36703938
46	0x3e8d1b49	0.2755988
47	0x3ee89293	0.45424327
48	0x3ec485a9	0.38383225
49	0x3e53cc9f	0.20683526
50	0x3ec87653	0.39152774
51	0x3ef30bb1	0.47469857
52	0x3e9694de	0.29410452
53	0x3ee1d1fb	0.44105515
54	0x3ec07473	0.37588844
55	0x3ea883fe	0.32913202
56	0x3e79dd97	0.24400936
57	0x3ed2ee4d	0.41197434
58	0x3ecff68a	0.40617782
59	0x3ec4f6ca	0.38469535
60	0x3edbc333	0.42922363
61	0x3eff44e1	0.49857238
62	0x3eb4f523	0.35343274
63	0x3ebb0f17	0.3653495

cnn.5.bias f4 [64]
0	0xbda92954	-0.08259836
1	0xbdcdb5eb	-0.10044464
2	0xbe254ddf	-0.16142987
3	0xbe0d6563	-0.13808207
4	0xbdf07769	-0.11741526
5	0xbd2a06e0	-0.041510463
6	0xbc4a6fff	-0.0123558035
7	0xbdcb5880	-0.099289894
8	0xbdd1b6f5	-0.102399744
9	0xbe2dbac3	-0.16965775
10	0xbd5a25b4	-0.053258613
11	0xbdd08a4f	-0.1018263
12	0xbe46c389	-0.19410528
13	0xbdead5e9	-0.114665814
14	0xbdfec6c9	-0.12440259
15	0xbd89cfcb	-0.067290865
16	0xbdfe52ff	-0.12418174
17	0xbdfa264a	-0.12214334
18	0xbe2d563b	-0.16927426
19	0xbe10169f	-0.1407113
20	0xbdcdfbf7	-0.10057824
21	0xbe0c4f5d	-0.1370215
22	0xbd7275c6	-0.05919435
23	0xbe0f8da3	-0.14018874
24	0xbdb1220a	-0.086490706
25	0xbd939470	-0.072060466
26	0xbd398145	-0.045289297
27	0xbe56be68	-0.20971072
28	0xbda3552b	-0.07975229
29	0xbde4b470	-0.11167228
30	0xbe30cbd6	-0.17265257
31	0xbe09f93e	-0.13473985
32	0xbe1a9cee	-0.15098926
33	0xbd3b5b77	-0.045741525
34	0xbd8430b0	-0.06454599
35	0xbdf30f9b	-0.11868211
36	0xbda3dce9	-0.0800112
37	0xbe49157c	-0.19637102
38	0xbd727aa5	-0.059198994
39	0xbc9cfddb	-0.019164016
40	0xbdcf97f8	-0.101364076
41	0xbdb7ac2a	-0.089683846
42	0xbda564f9	-0.080759
43	0xbe45ece9	-0.19328655
44	0xbe08668f	-0.13320373
45	0xbdf71b12	-0.1206571
46	0xbde1979a	-0.11015244
47	0xbe381805	-0.17977913
48	0xbd6c8d02	-0.057751663
49	0xbde80ec4	-0.11330941
50	0xbdb544f1	-0.0885104
51	0xbde77401	-0.11301423
52	0xbe1f2a5d	-0.15543504
53	0xbe262b63	-0.16227488
54	0xbe544435	-0.20729144
55	0xbe0e6967	-0.13907395
56	0xbd007fd5	-0.03137191
57	0xbe09b13c	-0.13446516
58	0xbe3ea2b8	-0.1861676
59	0xbe51120d	-0.20417042
60	0xbdd3d3c6	-0.10343127
61	0xbe1a7b51	-0.15086104
62	0xbe2837ce	-0.16427538
63	0xbc8e74c7	-0.017389668

cnn.5.running_mean f4 [64]
0	0xbe61d280	-0.22052956
1	0xbe2a0bdc	-0.16606086
2	0xbd29ab09	-0.041422877
3	0xbe10f1ab	-0.14154689
4	0xbd9ae927	-0.075640015
5	0xbea2afe6	-0.31774825
6	0xbe8767e8	-0.26446462
7	0xbdad33de	-0.084571585
8	0xbe69c328	-0.22828352
9	0xbe1c5c22	-0.15269521
10	0xbd796a44	-0.06089236
11	0x3cb811c5	0.02246941
12	0x3dcc3dad	0.09972701
13	0xbd5079e3	-0.05089749
14	0xbdb5075a	-0.08839293
15	0xbd84988a	-0.06474407
16	0xbe2f9456	-0.1714643
17	0xbc943dd0	-0.01809588
18	0xbcc03974	-0.023464896
19	0xbd9df623	-0.077129625
20	0xbdb1748b	-0.08664807
21	0xbc9a9e9a	-0.018874455
22	0xbe47a6fc	-0.19497293
23	0xbdfdded2	-0.12396015
24	0xbdfd79c1	-0.12376738
25	0xbdbd80b3	-0.09253063
26	0xbde90b43	-0.11379101
27	0x3dd51b8a	0.10405643
28	0xbe0cd6be	-0.13753793
29	0xbdc3edb4	-0.09566823
30	0x3e1fae95	0.15593942
31	0xbd67374c	-0.05644922
32	0xbd118c59	-0.035534237
33	0xbdf074fe	-0.117410645
34	0xbe283600	-0.1642685
35	0xbe09dd8b	-0.13463418
36	0xbdcdc2cf	-0.100469224
37	0xbd9ef668	-0.07761842
38	0xbdb996ae	-0.09061943
39	0xbe5bfec3	-0.21483903
40	0xbd6b4dea	-0.05744735
41	0xbd873d0f	-0.06603443
42	0xbe442e5f	-0.19158314
43	0xbdd14e24	-0.10219982
44	0xbd92838c	-0.07153997
45	0xbe2597b2	-0.16171148
46	0xbdbe3013	-0.09286513
47	0x3ac4a1bb	0.0015001813
48	0xbd864331	-0.065557845
49	0xbc3ce8f9	-0.011530154
50	0x3ce6e9f9	0.028187739
51	0xbc30f6c8	-0.010801025
52	0xbacd25b8	-0.00156515
53	0xbd202191	-0.03909451
54	0x3cf5bc8a	0.029997129
55	0xbddc4b63	-0.107565664
56	0xbe6daa20	-0.23209429
57	0xbd1b2596	-0.03787764
58	0xbd8af4fc	-0.06785008
59	0xbdb27721	-0.08714128
60	0xbd9a7230	-0.07541311
61	0xbe5d8974	-0.21634465
62	0xbd8c9b38	-0.06865543
63	0xbe6f8072	-0.23388842

cnn.5.running_var f4 [64]
0	0x3d347ef5	0.04406639
1	0x3d02b858	0.031914085
2	0x3ca9eba3	0.020742243
3	0x3d6b0572	0.05737824
4	0x3cbdea16	0.02318291
5	0x3d9ce4cf	0.07660829
6	0x3d7f6c39	0.06235907
7	0x3d116a5a	0.035501815
8	0x3d5a9245	0.05336215
9	0x3cd975c4	0.026545413
10	0x3c945bc6	0.018110167
11	0x3c265c02	0.010153772
12	0x3cfdf470	0.031000346
13	0x3d1705e8	0.036870867
14	0x3cd760a7	0.026291205
15	0x3cceab49	0.02522816
16	0x3d087f76	0.03332468
17	0x3cdb133b	0.026742568
18	0x3c89092d	0.016728008
19	0x3cb8bd60	0.022551239
20	0x3cf71b6e	0.030164447
21	0x3ccbf4a3	0.024896925
22	0x3d63bb10	0.05559832
23	0x3c6f8725	0.014619623
24	0x3c7bebd8	0.015376054
25	0x3c9470be	0.018120166
26	0x3c9626b1	0.018328996
27	0x3c6fca9f	0.014635711
28	0x3d66fff4	0.05639644
29	0x3d2fde1e	0.042936437
30	0x3c93b541	0.018030765
31	0x3cb2c0a1	0.021820368
32	0x3cdbef59	0.026847528
33	0x3cd8a6cf	0.026446728
34	0x3ca13739	0.019679653
35	0x3d1f2cd2	0.038861103
36	0x3d0d81ac	0.034547493
37	0x3c97dd91	0.018538268
38	0x3d027709	0.031851802
39	0x3d5bbd98	0.053647608
40	0x3cac8adf	0.021062313
41	0x3ccde027	0.025131298
42	0x3d161416	0.03664025
43	0x3d2fcd57	0.042920437
44	0x3c9221af	0.017838327
45	0x3d361de0	0.044462085
46	0x3cf13b81	0.029447319
47	0x3cb315ea	0.021861035
48	0x3ccffb67	0.025388433
49	0x3c3e6f8f	0.011623277
50	0x3cc15bfc	0.023603432
51	0x3d25af75	0.040450532
52	0x3cb7161b	0.022349408
53	0x3c91ac43	0.017782336
54	0x3cc61c31	0.024183365
55	0x3d13a141	0.036042456
56	0x3d33d2c3	0.04390217
57	0x3c9494d2	0.01813737
58	0x3c77ca55	0.015123923
59	0x3d0143c4	0.031558767
60	0x3cee6389	0.029100196
61	0x3d2aa7d7	0.04166397
62	0x3c90694e	0.017628338
63	0x3d80920c	0.06277856

cnn.9.weight f4 [128, 64, 3]
0	0x3c9043b8	0.017610416
1	0x3c550528	0.013001718
2	0x3cb53841	0.02212155
3	0xbcd89adb	-0.026441028
4	0xbcd01438	-0.025400266
5	0xbc7b939d	-0.015355018
6	0xbcb5d250	-0.022195011
7	0xbc00e385	-0.007866745
8	0xbba98f33	-0.0051745414
9	0xbc6a2fd1	-0.014293627
10	0xbc9ac58c	-0.018893026
11	0xbc0fff72	-0.00878893
12	0x3c93bfcc	0.018035792
13	0x3c5bddb5	0.013419558
14	0x3c784521	0.0151532
15	0x3c8587ee	0.016300168
16	0x3c23e284	0.010002736
17	0x3c5bde68	0.013419725
18	0xbc1d533a	-0.009602362
19	0xbb791369	-0.0038005954
20	0xbb74189b	-0.0037246111
21	0x3b38dd6e	0.0028208154
22	0x3be018bb	0.0068388856
23	0x3b0a9302	0.0021144752
24	0xbca4edcb	-0.02013292
25	0xbc90dc95	-0.017683307
26	0xbc2c642f	-0.0105219325
27	0xbc88d5cf	-0.016703514
28	0xbc97250b	-0.01845028
29	0xbc5091a7	-0.012730039
30	0xbb96fbc5	-0.00460765
31	0xbb37d4f0	-0.0028050505
32	0x3ba87918	0.0051413886
33	0x3c7bf1b2	0.015377449
34	0x3c432f9b	0.0119132055
35	0x3c6ab027	0.014324225
36	0x3c80a8b7	0.01570545
37	0x3c31b70d	0.010846865
38	0xbb4784b8	-0.0030444097
39	0xba21963a	-0.0006164048
40	0x3ab823d5	0.0014048765
41	0xbb6afb4c	-0.003585535
42	0xbcb8a51f	-0.022539673
43	0xbcbc8a7d	-0.023015255
44	0xbbeddfc2	-0.00725934
45	0xbc703b20	-0.014662534
46	0xbb9a54c2	-0.004709811
47	0xbc0932b2	-0.008373903
48	0xbc2bb41e	-0.010479955
49	0xbca94983	-0.020664936
50	0xbc340415	-0.010987301
51	0x3ca97feb	0.020690879
52	0x3c6dfd6b	0.014525752
53	0x3cdbe5e6	0.026843023
54	0x3cd3cc26	0.025854181
55	0x3ccf46e0	0.02530235
56	0x3c84c830	0.016208738
57	0xbc9220bd	-0.017837876
58	0xbc88fd9a	-0.01672249
59	0xbc9b52d4	-0.018960394
60	0xbc9b5839	-0.018962966
61	0xbbfaa780	-0.007649362
62	0xbc641146	-0.013920134
63	0x3bae9006	0.0053272275
64	0x3c037d41	0.008025468
65	0x3c450697	0.012025497
66	0xbcfbe43b	-0.030748477
67	0xbc76f9c7	-0.0150742
68	0xbcea40b2	-0.028595302
69	0x3cde5c79	0.027143704
70	0x3c6549e3	0.013994667
71	0x3c94aa82	0.01814771
72	0x3bd7ec8c	0.006589478
73	0x3b182ade	0.002321891
74	0xbbd7ed04	-0.0065895338
75	0xbc219351	-0.009861783
76	0xbaa0727f	-0.0012241154
77	0xbb9261ad	-0.0044672103
78	0xbc1a7b11	-0.009428755
79	0xbc611286	-0.0137373265
80	0xbc5fc02d	-0.013656658
81	0x3c96d721	0.018413128
82	0x3cdcfc12	0.026975665
83	0x3bf157c2	0.007365198
84	0x3bcc7616	0.006239663
85	0x3c40d0a1	0.011768491
86	0xbb062ab8	-0.002047224
87	0xbca46ab7	-0.020070417
88	0xbbf5515e	-0.0074865064
89	0xbbe93e91	-0.007118054
90	0x3a5dc05d	0.00084591453
91	0xbc5c3edf	-0.013442724
92	0xbc9a18db	-0.01881068
93	0xbc64cf03	-0.013965371
94	0xbc1c5000	-0.009540558
95	0xbc0f5675	-0.00874864
96	0xbc806f46	-0.01567806
97	0xbc39222a	-0.011299649
98	0xbb387b76	-0.002814976
99	0x3c97872f	0.018497078
100	0x3cb257e1	0.02177042
101	0x3cc2f6d3	0.023799336
102	0xbbc0612c	-0.005870959
103	0xbc485eea	-0.0122296605
104	0xbc474503	-0.01216245
105	0xbc3ef405	-0.0116548585
106	0xbc9dda39	-0.019269096
107	0xbc9a52fb	-0.018838396
108	0x3cdde6e3	0.027087634
109	0x3cbe75dd	0.023249561
110	0x3d040ee5	0.032240767
111	0xbc42217c	-0.011848804
112	0xbc01b0e3	-0.007915708
113	0xbb9622e0	-0.004581794
114	0xbc408d8a	-0.011752496
115	0xbc707318	-0.014675878
116	0xbc8cd63c	-0.017191999
117	0xbc26556b	-0.010152201
118	0xbc97b1c9	-0.018517392
119	0xbc9e56b9	-0.019328462
120	0xba7d521d	-0.000966342
121	0x3bf83dc0	0.0075757205
122	0x378e1757	1.6938588e-05
123	0xbc541a42	-0.0129457135
124	0xbb999009	-0.00468636
125	0xbadcd378	-0.001684769
126	0x3c818963	0.015812581
127	0x3ca23d88	0.019804731
128	0x3c8e6229	0.01738079
129	0x3c75442f	0.0149698695
130	0x3cde6465	0.027147481
131	0x3cbb2d0f	0.022848634
132	0xbb759a01	-0.0037475827
133	0x3c491025	0.012271916
134	0x3c726ab4	0.014795948
135	0xbc75df8e	-0.015006913
136	0xbc468f80	-0.012119174
137	0xbc9086ae	-0.017642345
138	0x3cc9b07c	0.024620287
139	0x3d0b7b1e	0.03405296
140	0x3c411f9b	0.0117873205
141	0x3c0b42c9	0.00849981
142	0x3c87e650	0.016589314
143	0x3ca1f3bf	0.019769548
144	0xbc9c998c	-0.019116186
145	0xbcb48a54	-0.022038616
146	0xbcd7545c	-0.026285343
147	0x3b837085	0.004011216
148	0x3bbc8336	0.0057529463
149	0xbbb9e8dc	-0.005673511
150	0xbc894d77	-0.01676057
151	0xbbdc3d5a	-0.006721181
152	0xbbb7e906	-0.0056124954
153	0xbd00dd84	-0.031461254
154	0xbc87007a	-0.01647972
155	0xbc69ef1c	-0.0142781995
156	0xbc318f2f	-0.01083736
157	0xbc59ad01	-0.013285876
158	0xbc683a8e	-0.014174117
159	0xba36abbe	-0.00069683406
160	0xbca7da81	-0.020489933
161	0xbc958baa	-0.018255074
162	0xbb0b75ce	-0.0021279934
163	0xbc0d161e	-0.00861123
164	0xbc26be3f	-0.010177194
165	0xbce5f264	-0.028069682
166	0xbcbc74bb	-0.02300488
167	0xbd0264b5	-0.031834323
168	0xbc84a9a2	-0.016194168
169	0xbc2e12fc	-0.010624643
170	0xbbbac698	-0.0056999438
171	0x3c4a3ed5	0.012344082
172	0x3bc664d8	0.006054502
173	0x3c579bde	0.01315972
174	0x3d04f726	0.03246226
175	0x3cb6a8c1	0.022297265
176	0x3c633339	0.013867193
177	0x3cabcaba	0.020970691
178	0x3c8ebb50	0.017423302
179	0x3c88b9fd	0.016690249
180	0xbc8f8412	-0.01751903
181	0xbc90736e	-0.017633166
182	0xbba738d2	-0.005103209
183	0x3cd203f4	0.02563665
184	0x3ca3cb90	0.019994527
185	0x3cb2801e	0.021789607
186	0xbc96d46c	-0.018411838
187	0xbc91e5dd	-0.017809803
188	0xbc39a2a4	-0.01133028
189	0xbc12db15	-0.008963366
190	0xbc523cff	-0.012831925
191	0xbc2a21e6	-0.010384059
192	0x3bf7d78f	0.0075635384
193	0x3bb12f28	0.005407233
194	0x3aed3890	0.0018098522
195	0xbc0ffe15	-0.008788605
196	0xbc602899	-0.013681554
197	0xbc6c8b7d	-0.0144375535
198	0xbc78b2ad	-0.015179318
199	0xbc704ed8	-0.014667235
200	0xbc886108	-0.01664783
201	0xbc9f4561	-0.019442262
202	0xbca15971	-0.01969597
203	0xbca9816f	-0.020691602
204	0x3cd072c6	0.025445353
205	0x3ca14d0d	0.019690061
206	0x3c0677d7	0.008207283
207	0x3c405e9e	0.0117413085
208	0x3b946180	0.0045282245
209	0xbaa3b944	-0.0012491127
210	0xbc16025e	-0.009155838
211	0xbc401a8c	-0.011725079
212	0xbc51ab17	-0.012797139
213	0x3c0111ae	0.00787775
214	0x3c924a61	0.017857732
215	0x3c442e39	0.011973911
216	0xbbc7132d	-0.006075284
217	0xbc3ac3ab	-0.01139919
218	0xbc323615	-0.010877152
219	0xbbcf5ca8	-0.006328184
220	0xbc31a41d	-0.01084235
221	0xbca6e34e	-0.02037206
222	0xbc3bfed4	-0.01147433
223	0xbcae8ef5	-0.021308402
224	0xba1163f7	-0.0005546207
225	0x3b800d89	0.0039078635
226	0x3ba31532	0.004976892
227	0x3c554d16	0.013018867
228	0x3c1812a2	0.009281786
229	0x3bb287f7	0.005448337
230	0x3b324513	0.0027201816
231	0xbc046898	-0.008081578
232	0xbc3e1608	-0.011601932
233	0xbafc536c	-0.0019250936
234	0xbcb9726a	-0.022637565
235	0xbc95fd64	-0.018309303
236	0xbbf62e68	-0.0075128563
237	0xbcd1e716	-0.025622886
238	0xbcdf1d85	-0.027235756
239	0xbc9b07a0	-0.018924534
240	0xbc8257bd	-0.015910977
241	0xbcc48527	-0.023989273
242	0xbce0f72a	-0.027461607
243	0x3c50836b	0.012726645
244	0x3b0a2427	0.0021078677
245	0x3a0d2379	0.0005384009
246	0x3cd9d4a0	0.026590645
247	0x3c5110c0	0.012760341
248	0x3c04423b	0.008072431
249	0xbc6dfb3a	-0.014525229
250	0xbbe38094	-0.006942818
251	0xbbb4663d	-0.005505352
252	0xbc410a6e	-0.011782272
253	0xbc3e7d5e	-0.01162657
254	0xbbf8ec9d	-0.007596566
255	0xb9f39195	-0.0004645704

cnn.10.weight f4 [128]
0	0x3ee945c5	0.45561042
1	0x3ec3d1f8	0.3824613
2	0x3ecfa8ad	0.40558377
3	0x3f082d68	0.53194284
4	0x3ed827e6	0.4221794
5	0x3f0b859b	0.5450074
6	0x3eed763e	0.46379274
7	0x3ea34bdb	0.3189381
8	0x3edd7b3f	0.43258092
9	0x3f004141	0.5009957
10	0x3ebd91bc	0.3702525
11	0x3ec38c71	0.38193086
12	0x3ea24f16	0.31700963
13	0x3eeda1b4	0.46412432
14	0x3eaf4eb7	0.34239742
15	0x3f19b3f7	0.6004023
16	0x3f0db798	0.55358267
17	0x3f025a19	0.5091873
18	0x3f0737fe	0.5281981
19	0x3ee4fd27	0.4472439
20	0x3eeae182	0.45875174
21	0x3ed1d816	0.40985173
22	0x3f1132fe	0.5671843
23	0x3ed20821	0.41021827
24	0x3ee36cad	0.4441885
25	0x3ed302ee	0.41213173
26	0x3ea418e9	0.32050255
27	0x3e87a936	0.26496285
28	0x3eb469e8	0.3523705
29	0x3eeddfaf	0.4645972
30	0x3e9b1c25	0.3029491
31	0x3ed2ca72	0.4117008
32	0x3ede41e3	0.43409643
33	0x3ec90e9b	0.39268956
34	0x3ea03052	0.31286865
35	0x3f0c27b7	0.547481
36	0x3ea2554f	0.3170571
37	0x3e86422c	0.2622236
38	0x3e984a49	0.29744175
39	0x3eea32cd	0.45741883
40	0x3ead5527	0.3385403
41	0x3eac325b	0.33632168
42	0x3eaf55ba	0.34245092
43	0x3eba61d5	0.36402765
44	0x3eb7513e	0.3580417
45	0x3ea8398c	0.32856405
46	0x3ee787f7	0.4522092
47	0x3ed3236f	0.4123797
48	0x3ec28664	0.37993157
49	0x3ed71169	0.4200547
50	0x3ea6860e	0.3252415
51	0x3f157029	0.5837427
52	0x3f0c9a46	0.549229
53	0x3ed5d932	0.4176727
54	0x3ebbf2b4	0.36708605
55	0x3e988c50	0.2979455
56	0x3f0bf0b7	0.54664177
57	0x3f11f473	0.57013625
58	0x3f1456af	0.5794477
59	0x3f0ab986	0.54189336
60	0x3ea407ca	0.32037193
61	0x3f094c43	0.5363199
62	0x3f0b90ac	0.54517627
63	0x3ec3ba44	0.38228047
64	0x3e9c9cb6	0.3058831
65	0x3eac4f2f	0.33654162
66	0x3edfdf17	0.43724892
67	0x3ec35c16	0.38156193
68	0x3f0e05f6	0.55477846
69	0x3ee44c13	0.4458929
70	0x3f13acaf	0.5768537
71	0x3ee94a48	0.45564485
72	0x3ed8c520	0.42337894
73	0x3eef129b	0.46693882
74	0x3ed0afed	0.4075922
75	0x3f021ad7	0.50822204
76	0x3ea3a273	0.31959876
77	0x3ea8535d	0.328761
78	0x3f036fce	0.51342475
79	0x3eb63fd7	0.3559558
80	0x3eea7d15	0.45798555
81	0x3ec41f48	0.38305116
82	0x3ef28657	0.47368118
83	0x3ec8049a	0.3906601
84	0x3f1bfea6	0.6093544
85	0x3ee2f76b	0.4432939
86	0x3f0eeab4	0.5582688
87	0x3e8c7ffb	0.2744139
88	0x3ee5a3e2	0.44851595
89	0x3ebca2a0	0.36842823
90	0x3f081ee1	0.5317212
91	0x3e9fd206	0.31214923
92	0x3e9e336b	0.30898604
93	0x3f11b42f	0.56915563
94	0x3f0f2caf	0.55927557
95	0x3eea8f14	0.45812285
96	0x3eda2207	0.42604086
97	0x3ee21415	0.44155946
98	0x3ed00415	0.40628114
99	0x3ec6bcbd	0.3881587
100	0x3f171636	0.59018266
101	0x3ec41be4	0.3830253
102	0x3ede4dd4	0.43418753
103	0x3ef4ebae	0.4783606
104	0x3eccf851	0.400332
105	0x3ef991fc	0.4874419
106	0x3e81793a	0.252878
107	0x3e993e45	0.2993032
108	0x3ed8e1da	0.4235981
109	0x3ee96eed	0.45592442
110	0x3ed6c5cf	0.4194779
111	0x3ef99713	0.48748073
112	0x3e9e723d	0.30946532
113	0x3edc2a23	0.43000898
114	0x3ea8f5ba	0.32999974
115	0x3ea47c2d	0.3212599
116	0x3f0ebd70	0.5575781
117	0x3f0d932f	0.5530271
118	0x3efde2b8	0.49587035
119	0x3ee71b17	0.45137855
120	0x3ef429df	0.47688195
121	0x3eaeaab9	0.34114626
122	0x3f01620f	0.5054025
123	0x3e9d5bc2	0.30734068
124	0x3eebd176	0.46058244
125	0x3e9ed043	0.31018266
126	0x3ed71ad0	0.42012644
127	0x3ecc8743	0.39946947

cnn.10.bias f4 [128]
0	0x3c2ba82c	0.010477107
1	0x3d487495	0.048939306
2	0x3af39bf2	0.0018585904
3	0xbae6035e	-0.0017548611
4	0x3c102f9c	0.008800413
5	0x3bd81695	0.006594489
6	0x3d06da29	0.032922897
7	0x3cc65a82	0.02421308
8	0x3c66ad2c	0.014079373
9	0x3bc25e1e	0.00593163
10	0x3bb4ce9e	0.0055177948
11	0x3b9eba6f	0.004844002
12	0x3c5c5034	0.013446856
13	0x3c466deb	0.012111167
14	0xbb306ed9	-0.002692154
15	0x3c2cad50	0.010539368
16	0x3d11a89e	0.035561197
17	0xbb0189e8	-0.0019766036
18	0x3c8d82cd	0.017274285
19	0x3c685c4f	0.014182164
20	0x3bdb1771	0.006686144
21	0x3bd62a14	0.006535778
22	0xbbb87b73	-0.0056299507
23	0x3c6cc866	0.014452076
24	0x3be1f2ca	0.006895398
25	0x3cd3c3c0	0.025850177
26	0x3c34c64c	0.011033606
27	0x3cb1e135	0.021713832
28	0x39998df7	0.00029288206
29	0xbc09d00b	-0.008411418
30	0x3b96f1a3	0.004606442
31	0xbbf563e0	-0.0074887127
32	0xbbfacb97	-0.0076536643
33	0x3c86b77a	0.01644491
34	0xbbdc3ea5	-0.006721335
35	0x3d374e84	0.044752613
36	0x3b1d4d79	0.0024002476
37	0x3a1bcfe2	0.0005943758
38	0x3ab3ad04	0.0013708179
39	0x3bd993db	0.00663994
40	0x3c184277	0.00929319
41	0x3c061cd5	0.008185585
42	0xbbcab278	-0.006185826
43	0x3c434f37	0.011920742
44	0xbbcc846b	-0.0062413714
45	0x3b459de3	0.0030153922
46	0x3bf12280	0.007358849
47	0xbac50713	-0.0015032016
48	0x3b8808c8	0.0041514374
49	0xbc7083f4	-0.014679898
50	0x3bc06539	0.0058714417
51	0xbbf3a779	-0.007435736
52	0xbc99bf4e	-0.018767979
53	0x3d354cb9	0.04426262
54	0x3d282a44	0.041055933
55	0x3c23bdab	0.009993951
56	0xbaa50870	-0.0012591016
57	0xbc8e4126	-0.01736505
58	0x3b2df8ee	0.0026546079
59	0xbc9346ad	-0.017978037
60	0x3d37f836	0.044914447
61	0xbcce8362	-0.025209133
62	0x3a3cf5dd	0.00072082673
63	0xbbd904e2	-0.0066228965
64	0x3cb46985	0.022022972
65	0x3b3c9bd7	0.0028779411
66	0x3c997818	0.018734023
67	0x3c877324	0.016534396
68	0x3c80d84f	0.015728144
69	0x3c409274	0.011753667
70	0xbc06a381	-0.008217693
71	0xbc84e3fe	-0.016221996
72	0x3b8546d8	0.004067283
73	0x3c1f572f	0.009725376
74	0x3a0ba2ab	0.00053266686
75	0x3c6ddf76	0.014518609
76	0xbb7654b7	-0.0037587115
77	0xbc0a435e	-0.008438913
78	0x3d132812	0.035926886
79	0x3c494c51	0.012286262
80	0xbcadcd26	-0.021215986
81	0x3d4e750c	0.050404593
82	0x3d463d3d	0.048398245
83	0x3b655f61	0.0034999477
84	0x3b3fb858	0.0029254165
85	0x3a977ffc	0.0011558528
86	0x3d0be435	0.034153182
87	0x3b8a401d	0.0042190687
88	0xbc21fbb5	-0.009886672
89	0x3c40dc56	0.011771282
90	0xb9f7f4c9	-0.0004729389
91	0x3ccaf44c	0.024774693
92	0xb9e0bd22	-0.00042865524
93	0x3ccaa7ba	0.024738181
94	0xbc451274	-0.012028325
95	0xbb863a0e	-0.004096276
96	0x3c0dc0b5	0.008651902
97	0xbbbef058	-0.005826991
98	0x3a168b9d	0.000574285
99	0x3c75febc	0.015014347
100	0x3bd365cf	0.0064513455
101	0x3c061a78	0.008185022
102	0x3d1f3687	0.03887036
103	0x3d0fe9a2	0.03513492
104	0xbcd7791d	-0.026302869
105	0x3cdd4e65	0.02701492
106	0xbb4f7862	-0.0031657447
107	0xbc2c8093	-0.010528701
108	0x3c93a10e	0.018021133
109	0x3c064b1a	0.008196617
110	0x3b9e8757	0.004837911
111	0xbca2b0ee	-0.019859757
112	0x3c0d6034	0.008628894
113	0x3d08b830	0.03337878
114	0x3b9f10fa	0.0048543187
115	0x3cc042b5	0.023469308
116	0x3ca776c3	0.020442372
117	0x3bc670db	0.006055934
118	0x3a91c8df	0.0011122486
119	0x3cd6d627	0.026225163
120	0x3d64dca9	0.0558745
121	0x3beca9b7	0.00722238
122	0xbcf67a0f	-0.030087499
123	0x3b13d677	0.002255825
124	0x3a5ec787	0.000849836
125	0x3ce1befa	0.027556885
126	0x3c70463c	0.014665183
127	0x39c9f210	0.00038518058

cnn.10.running_mean f4 [128]
0	0xbc205d5e	-0.0097878855
1	0xbd91834d	-0.07105122
2	0x3c0515c0	0.008122861
3	0x3cfcbc3a	0.030851472
4	0x3c832cf7	0.016012652
5	0x3d72a934	0.059243396
6	0x3cd73193	0.026268756
7	0xbd047851	-0.032341305
8	0xba0a2b52	-0.00052707375
9	0xbbe8d748	-0.0071057416
10	0xbc8f3fc4	-0.01748646
11	0x3d20cc4f	0.039257344
12	0x3d25186b	0.04030649
13	0x3d04e578	0.0324454
14	0x3cf1f6c0	0.029536605
15	0x3d1985dc	0.037481174
16	0xbd84e0dc	-0.06488201
17	0x3b91a813	0.004445085
18	0x3d704df3	0.05866809
19	0x3cb9eafa	0.022695053
20	0x3bef9109	0.0073109907
21	0x3c805b44	0.015668519
22	0x3c8f61d3	0.0175027
23	0xbc768454	-0.015046198
24	0xba3b7846	-0.0007151406
25	0x3ab28bdf	0.0013622007
26	0xbd2cfcaf	-0.042233165
27	0x3cd2b74c	0.025722168
28	0xbc0669eb	-0.008203964
29	0xb955f897	-0.0002040587
30	0x3b8ae501	0.004238725
31	0xbc11ced3	-0.008899408
32	0xbca33d5d	-0.019926721
33	0x3cb874ea	0.022516686
34	0x3d063358	0.03276381
35	0xbd64568f	-0.05574661
36	0x3c54be40	0.012984812
37	0xbcc8f210	-0.024529487
38	0x3a14279c	0.0005651654
39	0x3c7a39f8	0.01527261
40	0x3a931e73	0.0011224285
41	0x3d2b6b4f	0.041850384
42	0x3b7e0f67	0.0038766505
43	0x3cb0758c	0.021540426
44	0x3c05a0de	0.0081560295
45	0xbc7ff5e3	-0.015622589
46	0x3ba3b909	0.004996423
47	0x3c72d4b9	0.014821225
48	0x3cc10456	0.023561638
49	0x363157e4	2.6426214e-06
50	0x3bb32cca	0.0054679858
51	0xbcbde42b	-0.023180088
52	0xbc1b8ea0	-0.009494454
53	0xbd91e202	-0.07123186
54	0xbd8a96e5	-0.06767062
55	0x3c0a6e4d	0.008449149
56	0x3c351376	0.011052003
57	0x3cd0ddad	0.025496328
58	0xbc473d96	-0.012160679
59	0xbbb64804	-0.005562784
60	0xbd7c847e	-0.061649792
61	0xbd04be26	-0.032407902
62	0x3ceb14e9	0.028696494
63	0xbc84d8dd	-0.01621669
64	0x3d7a53cc	0.06111507
65	0xbc195655	-0.009358962
66	0x3cd72b44	0.026265748
67	0x3b5f9fa2	0.0034122248
68	0x3c28ea7f	0.0103098145
69	0x3c532f9b	0.012889768
70	0x3cf6caea	0.030126054
71	0xbc910b59	-0.017705606
72	0xbbde8277	-0.006790455
73	0x3c4f533b	0.012654121
74	0xbbaf8299	-0.0053561446
75	0x3cb27abc	0.02178704
76	0x3d723288	0.05913022
77	0x3b1b4f63	0.0023698441
78	0xbd3c050d	-0.045903254
79	0x3b0798f0	0.0020690523
80	0xbd315cf1	-0.043301526
81	0xbd8c1975	-0.06840793
82	0xbd879bc6	-0.06621508
83	0x3c2984ed	0.010346633
84	0x3d2b910c	0.041886374
85	0xbbc49c9a	-0.0060001137
86	0xbda47fc3	-0.08032181
87	0x3cbf70e7	0.023369266
88	0x3ce61c37	0.028089626
89	0x3c274d2f	0.010211273
90	0xbb5ea607	-0.0033973472
91	0xbd474294	-0.04864748
92	0x3c2fe330	0.010735318
93	0xbd54f224	-0.051988736
94	0xbc428496	-0.011872431
95	0x3c92ba6e	0.017911162
96	0x3bf08a58	0.0073407106
97	0x3c357492	0.011075156
98	0x3c499780	0.012304187
99	0xbc211b4f	-0.009833171
100	0x3b8c5714	0.0042828415
101	0x3ab75f59	0.0013990208
102	0x3d86d00b	0.0658265
103	0xbd8b6a98	-0.068074405
104	0x3cbf5496	0.023355763
105	0x3c17d15d	0.009266225
106	0xbc624d87	-0.013812429
107	0x3caa459a	0.020785142
108	0x3c1c8bb4	0.009554792
109	0x3c5b683a	0.013391549
110	0x3c1a35e5	0.0094122635
111	0xbbbac4ef	-0.005699746
112	0x3c874f43	0.016517287
113	0xbce407cc	-0.02783575
114	0x3c770c7c	0.01507866
115	0x3ca0e241	0.019639136
116	0x3d2493bf	0.040179964
117	0x3d279910	0.040917456
118	0xbcc055fd	-0.023478502
119	0x3d0482c5	0.032351274
120	0xbd28ebd2	-0.04124052
121	0x3cb8973a	0.022533048
122	0xbc8d4b14	-0.017247714
123	0x3bc9e6e5	0.006161558
124	0xbcb62a97	-0.022237105
125	0x3d1c54e3	0.03816689
126	0xbc469a5c	-0.012121763
127	0xbbb1eedf	-0.005430087

cnn.10.running_var f4 [128]
0	0x3b6910ca	0.0035562986
1	0x3b4d7b43	0.0031353987
2	0x3b5a2f90	0.003329251
3	0x3bfd4eff	0.0077303643
4	0x3b7512b2	0.0037395176
5	0x3c337fa6	0.010955727
6	0x3babf7aa	0.0052480297
7	0x3b2edda1	0.0026682394
8	0x3b8cb95e	0.0042945584
9	0x3bb2e97f	0.005459964
10	0x3b66fff1	0.0035247768
11	0x3bd37618	0.006453287
12	0x3b836d9e	0.00401087
13	0x3bc1fdd5	0.0059201517
14	0x3b72ddd3	0.0037058487
15	0x3bf045e4	0.0073325504
16	0x3b8541a1	0.0040666615
17	0x3b875710	0.0041302517
18	0x3c05c441	0.008164466
19	0x3b93e71c	0.0045136344
20	0x3b88d580	0.004175842
21	0x3b8cadf3	0.0042931973
22	0x3ba66fab	0.00507923
23	0x3b840086	0.0040283827
24	0x3bb29c3b	0.005450753
25	0x3b7ee4f0	0.0038893782
26	0x3afbbe8d	0.0019206569
27	0x3b18c0d7	0.00233083
28	0x3b5f23e6	0.0034048497
29	0x3b907596	0.0044085486
30	0x3b12af9b	0.00223825
31	0x3bb132e9	0.0054076803
32	0x3b9239c7	0.004462454
33	0x3b838938	0.0040141605
34	0x3b88550b	0.0041605285
35	0x3b85f761	0.0040883278
36	0x3b1ce479	0.0023939891
37	0x3ad873d5	0.0016514013
38	0x3b2e6cef	0.0026615222
39	0x3b92c2f1	0.004478805
40	0x3b3f0c1e	0.002915151
41	0x3bb5702a	0.0055370526
42	0x3b75aada	0.0037485869
43	0x3b84928c	0.00404579
44	0x3b41e4ad	0.0029585764
45	0x3b3d713d	0.0028906607
46	0x3b797677	0.0038064995
47	0x3b9cf1d1	0.004789569
48	0x3b871095	0.00412185
49	0x3ba49fb7	0.0050239223
50	0x3b38a3b0	0.0028173737
51	0x3bc2f914	0.0059501026
52	0x3bb8a96e	0.005635432
53	0x3b4f05f1	0.0031589235
54	0x3b4da5bd	0.0031379305
55	0x3b3141fc	0.0027047386
56	0x3b9df743	0.0048207357
57	0x3bdf18df	0.006808385
58	0x3ba30891	0.0049753864
59	0x3bc7a219	0.0060923216
60	0x3b299fb3	0.0025882542
61	0x3bb3086b	0.00546365
62	0x3c0371ec	0.008022767
63	0x3b700117	0.0036621743
64	0x3be10e0b	0.006868129
65	0x3b227093	0.0024786338
66	0x3ba54b6f	0.005044393
67	0x3b8f9e97	0.004382919
68	0x3bae7b4c	0.0053247567
69	0x3ba59dc6	0.0050542085
70	0x3c01a93d	0.007913885
71	0x3b5a325e	0.0033294181
72	0x3b84baf3	0.0040506064
73	0x3b7a7dcf	0.003822196
74	0x3b78f21a	0.00379861
75	0x3bb17e9c	0.0054167043
76	0x3bc3d4d0	0.005976297
77	0x3b324d94	0.0027206885
78	0x3b79f201	0.003813863
79	0x3b8f7ecc	0.004379129
80	0x3bad58be	0.00529012
81	0x3b7674f0	0.0037606321
82	0x3b69e386	0.0035688593
83	0x3b48d8c5	0.0030646783
84	0x3c0a046d	0.008423907
85	0x3b985f00	0.0046499968
86	0x3b977ad7	0.004622798
87	0x3b2f56d4	0.0026754634
88	0x3baf89b6	0.0053569926
89	0x3b5979d3	0.0033184185
90	0x3bd884db	0.0066076345
91	0x3b0b070c	0.0021213917
92	0x3b11d983	0.0022254891
93	0x3b8a5c2c	0.0042224135
94	0x3bb8699d	0.0056278245
95	0x3b6ed4b9	0.003644271
96	0x3b7923d1	0.0038015733
97	0x3b6bb8a9	0.003596822
98	0x3b99955f	0.004686996
99	0x3b4eeb60	0.00315734
100	0x3be75915	0.00706018
101	0x3b55d992	0.0032630903
102	0x3c0fc47b	0.008774872
103	0x3b6b4506	0.0035899295
104	0x3b750798	0.003738856
105	0x3bb83881	0.00562197
106	0x3b1a014a	0.0023499303
107	0x3b478302	0.0030443077
108	0x3b823273	0.003973299
109	0x3b8a83c7	0.004227135
110	0x3b8e34b4	0.004339779
111	0x3baf2918	0.005345475
112	0x3b324ee4	0.0027207667
113	0x3b419ae3	0.0029541783
114	0x3b32be73	0.002727416
115	0x3b4fce92	0.003170882
116	0x3c09782e	0.0083904695
117	0x3c1ab978	0.009443633
118	0x3ba2b73f	0.0049656923
119	0x3b9929fd	0.004674195
120	0x3ba2e2f2	0.0049709016
121	0x3b3eb92e	0.0029102075
122	0x3bc084a5	0.0058751875
123	0x3b6b71bf	0.0035925952
124	0x3babe7f8	0.0052461587
125	0x3bb3ca01	0.005486727
126	0x3ba1ef88	0.0049418844
127	0x3b76c0fc	0.0037651649

head.2.weight f4 [2, 128]
0	0x3da2a582	0.07941724
1	0x3d615d38	0.05502054
2	0xbdcf4e46	-0.10122351
3	0xbe22f328	-0.15913069
4	0x3da5afad	0.08090148
5	0x3e00e0cf	0.12585758
6	0x3dbe5247	0.09293037
7	0x3e06c52c	0.13161153
8	0xbe31779c	-0.17330784
9	0xbe055f18	-0.13024557
10	0xbd8d2eca	-0.0689369
11	0x3d83e74f	0.06440603
12	0x3cbab0e3	0.022789424
13	0x3db3dfa4	0.087828904
14	0xbd4a630b	-0.04941086
15	0x3e17a9ff	0.14810942
16	0x3dfbc821	0.12294031
17	0xbe0dab6c	-0.13834924
18	0x3df19b3f	0.11797189
19	0x3da6800b	0.08129891
20	0x3dc5b31d	0.09653304
21	0x3d944f9b	0.07241746
22	0xbe27bd9e	-0.16380927
23	0xbdc23c61	-0.094841726
24	0xbdc958af	-0.09831368
25	0xbdbc8050	-0.09204161
26	0x3de70fb4	0.11282292
27	0xbdb5ffb1	-0.0888666
28	0xbdf731d4	-0.12070051
29	0xbe25f147	-0.16205321
30	0xbd5c59de	-0.05379664
31	0xbdce58cd	-0.10075531
32	0xbdddf291	-0.108372815
33	0x3db9d172	0.09073152
34	0xbd3cb219	-0.046068285
35	0x3e1d23f1	0.15345742
36	0xbd9eabe6	-0.07747631
37	0x3da456f4	0.080243975
38	0xbd432188	-0.0476394
39	0x3e239641	0.15975286
40	0xbde3f58d	-0.111308195
41	0x3d947b78	0.07250112
42	0xbe123e94	-0.14281684
43	0x3e1c0100	0.15234756
44	0xbd95dbc2	-0.07317306
45	0xbda16f9a	-0.078826144
46	0x3dedf102	0.11618234
47	0xbe030ba7	-0.12797414
48	0x3daebb11	0.08531774
49	0xbe02689e	-0.12735221
50	0xbd8b5753	-0.06803765
51	0xbe26cfc7	-0.16290198
52	0xbe1ff871	-0.15622117
53	0x3d60db07	0.05489638
54	0x3d81799c	0.06322023
55	0xbd8d813c	-0.06909415
56	0xbe163d44	-0.14671808
57	0x3e19d3e6	0.15022239
58	0x3e13d610	0.14437127
59	0xbe3816f7	-0.1797751
60	0x3d6aa034	0.057281688
61	0xbe20c731	-0.15700985
62	0x3e1b3d03	0.15159993
63	0xbdb60d46	-0.088892505
64	0x3ddc5ff3	0.10760488
65	0xbe054dad	-0.13017912
66	0x3d9b5824	0.07585171
67	0xbdaa1cd8	-0.08306283
68	0x3defd102	0.11709787
69	0x3dc9fe21	0.09862924
70	0x3e134409	0.14381422
71	0xbdc69bc6	-0.0969768
72	0xbe1bba48	-0.1520778
73	0x3e0edc21	0.1395116
74	0xbdf65b08	-0.120290816
75	0xbdfd06cb	-0.12354811
76	0x3df477d4	0.11936918
77	0xbd61cfb8	-0.055129737
78	0x3dea0220	0.114261866
79	0xbe22962f	-0.15877603
80	0xbdfc82a2	-0.12329604
81	0x3e10999a	0.14121094
82	0x3e12aaa0	0.14322901
83	0xbda1aaf5	-0.078939356
84	0x3e233434	0.15937883
85	0xbdf6503f	-0.120270245
86	0x3e0ef62d	0.13961096
87	0x3c9e9a26	0.019360613
88	0xbe19f34d	-0.15034218
89	0xbd961089	-0.073273726
90	0xbe232bfd	-0.15934749
91	0x3dad2ad0	0.084554315
92	0x3dde3fce	0.108520135
93	0x3e12fe1e	0.1435475
94	0xbe20069a	-0.15627518
95	0xbdf77eea	-0.12084754
96	0x3e1503a7	0.14552175
97	0xbdab7e9e	-0.0837376
98	0x3dce4c23	0.10073116
99	0x3d987ca2	0.07445647
100	0x3e296981	0.16544153
101	0xbdcf58fd	-0.10124395
102	0x3da2fa29	0.079578705
103	0x3e16009b	0.14648668
104	0xbd9d7b45	-0.076895274
105	0x3dfdf080	0.12399387
106	0xbdb37839	-0.08763165
107	0xbd8fce46	-0.070217654
108	0x3d97a1ef	0.07403933
109	0x3e043627	0.12911282
110	0xbdf21684	-0.11820701
111	0xbe15402f	-0.14575265
112	0x3b6c7341	0.003607944
113	0x3d3a110e	0.04542642
114	0xbd9fce83	-0.07803061
115	0xbd997ba2	-0.07494284
116	0x3e2bad3d	0.16765304
117	0x3e06eeb8	0.13177001
118	0xbe09a321	-0.13441135
119	0xbdd73197	-0.105075054
120	0x3de81c3d	0.11333511
121	0x3e0df8ca	0.13864437
122	0xbe10b648	-0.14132035
123	0xbdaa1ec3	-0.083066486
124	0xbe35dac3	-0.17759232
125	0x3d29de68	0.04147187
126	0xbd9c5451	-0.076332696
127	0xbdbe648e	-0.09296523
128	0xbe233ffe	-0.1594238
129	0xbe2034b8	-0.1564511
130	0x3dfc9335	0.12332765
131	0x3e21fcd3	0.15819101
132	0xbe0775f0	-0.13228583
133	0xbe0a2935	-0.13492282
134	0xbe13d6de	-0.14437434
135	0xbd2173c8	-0.03941706
136	0x3dbf4845	0.09339956
137	0x3e1f792d	0.15573569
138	0x3e1bc8bc	0.15213293
139	0xbe0c52b2	-0.13703421
140	0xbe072c90	-0.13200593
141	0xbe14b37c	-0.14521593
142	0x3e0f8a00	0.14017487
143	0xbe0699ca	-0.13144603
144	0xbe09c496	-0.13453898
145	0x3e0d3d49	0.1379291
146	0xbe24a1b9	-0.16077317
147	0xbe021647	-0.1270381
148	0xbe0156de	-0.12630793
149	0xbe0d8a54	-0.13822299
150	0x3e2fbe23	0.17162375
151	0x3e1ba037	0.15197836
152	0x3e1b5a02	0.15171054
153	0x3e1571e5	0.14594229
154	0xbd67f290	-0.05662781
155	0x3d625b46	0.055262826
156	0x3db4b499	0.08823509
157	0x3ddc5539	0.107584424
158	0x3ddf090b	0.10890397
159	0x3e11fa0a	0.14255539
160	0x3e1352c1	0.14387037
161	0xbdeb35ee	-0.11484896
162	0x3e044f42	0.1292086
163	0xbdf1d3e5	-0.11807994
164	0x3dce4a20	0.10072732
165	0xbd38e2c5	-0.04513814
166	0x3de8762d	0.11350665
167	0xbda0f960	-0.078600645
168	0x3da9c5da	0.0828969
169	0xbdb1b78d	-0.08677588
170	0x3d603e27	0.054746773
171	0xbd2be30d	-0.04196458
172	0x3deec683	0.11658957
173	0x3ddbf996	0.10740964
174	0xbdfd2b33	-0.12361755
175	0x3dfab235	0.122410215
176	0xbdecab79	-0.11556143
177	0x3dd99a92	0.10625185
178	0x3de27860	0.11058116
179	0x3e2da97e	0.16959187
180	0x3e0bcb5b	0.13651793
181	0xbe18beff	-0.14916609
182	0xbdeb92b7	-0.11502593
183	0x3dce0b08	0.10060698
184	0x3e251b36	0.16123661
185	0xbe0e56c5	-0.13900287
186	0xbdeb53ef	-0.114906184
187	0x3e0eb24f	0.13935207
188	0xbddf75db	-0.10911151
189	0x3e1977ca	0.14987102
190	0xbe044bed	-0.12919588
191	0x3dfa6934	0.12227097
192	0xbd350a10	-0.04419905
193	0x3d76a863	0.06021918
194	0xbe1a0d21	-0.15044071
195	0x3e107415	0.14106782
196	0xbe24af88	-0.16082585
197	0xbe084f2a	-0.13311449
198	0xbe1df4ee	-0.15425465
199	0x3e0c8506	0.1372262
200	0x3ddb5bf8	0.10710901
201	0xbdd1b5a5	-0.10239724
202	0x3dd4b068	0.10385209
203	0x3e33542f	0.17512582
204	0xbd365c37	-0.044521537
205	0x3e007eda	0.1254839
206	0xbe0113ea	-0.12605253
207	0x3d5f2e79	0.05448768
208	0x3e00dd21	0.12584354
209	0xbd41bdce	-0.047300152
210	0xbdbba982	-0.091631904
211	0x3e13705b	0.14398329
212	0xbe1e1d7b	-0.15440933
213	0x3e18bf56	0.14916739
214	0xbe067304	-0.13129812
215	0xbdedbe74	-0.11608592
216	0x3dd40708	0.103529036
217	0x3e176f78	0.14788616
218	0x3e2a86f7	0.16653048
219	0xbd7c35cf	-0.061574753
220	0xbd2f33ec	-0.042774126
221	0xbde642f9	-0.11243243
222	0x3e298f4f	0.16558574
223	0x3df9411c	0.12170622
224	0xbd9beee2	-0.07613923
225	0x3e25923e	0.16169068
226	0xbddcf402	-0.10788728
227	0xbe029416	-0.12751803
228	0xbe14cdcb	-0.14531629
229	0x3df4bfec	0.11950669
230	0xbe2d0d4c	-0.16899604
231	0xbda5b7ca	-0.080916956
232	0x3e034b44	0.1282168
233	0xbdf967aa	-0.121779755
234	0x3d2354cc	0.03987579
235	0x3dbc02f9	0.091802545
236	0xbe07e62a	-0.13271394
237	0xbdd5f1aa	-0.104464844
238	0x3ddd1f3d	0.10796974
239	0x3e004946	0.12527952
240	0xbe17c18b	-0.14819925
241	0xbe2f082b	-0.1709296
242	0x3dd6333f	0.10458993
243	0x3dde096b	0.1084164
244	0xbdeaf765	-0.11472968
245	0xbe18c925	-0.1492048
246	0x3e1f68d2	0.1556733
247	0x3e1d4354	0.15357715
248	0xbdfe6f49	-0.1242357
249	0xbcc0d574	-0.023539282
250	0x3e10d649	0.14144243
251	0x3dbb4702	0.09144403
252	0x3dd15976	0.102221414
253	0xbded91da	-0.116000846
254	0x3e2f45f9	0.17116536
255	0x3e112a04	0.14176184

head.2.bias f4 [2]
0	0x3d928d28	0.0715583
1	0x3d533a3d	0.051569212
