saved_models/cnn/cnn_[layer4-base32].pt (torch, 535637 bytes, 22 tensors)

cnn.0.weight f4 [32, 1, 3]
00000000: 2be2 6f3e 4dc1 503e 5355 cebd 3d9e 8a3e
00000010: 6154 b8bd 1498 413d b96d 54be 3105 4b3e
00000020: c1cb 8b3e 0c7f b6be 33a4 ae3e a651 a03d
00000030: 7978 573e 7df4 953d eb5c 1b3e c83f 3bbd
00000040: c831 473e 11f6 9d3c 4c0a 56be 562d b53d
00000050: d946 30be ab1f 86bd d240 03be 86f3 a13e
00000060: 52f1 3ebe bc9b f6bd 0564 92bd d846 32be
00000070: 1766 943d fd78 85be f740 cc3e 827e abbe
00000080: d17d a23e 238b b73d 4c5c 0bbe e22a 793e
00000090: 6e17 aa3c 91d1 3c3e dd8d 9bbb 0279 e3bd
000000a0: a2e8 1d3e 0c4f 30be 189f e13d 1228 653e
000000b0: 6b03 be3d 7de1 47be 0aef 883e 5129 f73d
000000c0: 18f8 383e 81a5 11be fed9 aebe 5190 debd
000000d0: 9f16 acbe 6d03 cc3e 349b c23d faa9 113e
000000e0: 3f09 c03d 0b67 0c3c 321b a63e e74f b8be
000000f0: 9280 4c3d 9432 9ebe 83c9 163e eca9 10be
00000100: 79ba 293e 4b2f 03be a468 af3e 6413 97be
00000110: bd7f 7abe 0a4f 80be d0f7 b93e 4a82 453e
00000120: 60a9 a03e c316 88be d718 b2be fb99 7cbe
00000130: 9643 87be 6a30 363e 2d91 123e 9b66 993e
00000140: e2a2 70be a1c7 a3be 3c60 5c3e f852 fdbd
00000150: e898 563e b45c d9bd ce56 363e b4ea 7abe
00000160: 0ef4 fcbd 2388 313e 261c 9f3d 1acd 16be
00000170: fc43 5e3e a44e 923e b51f a6be 6e3f 4ebe
0.2342612 0.20386238 -0.10074868 0.2707385 -0.09000469 0.047264174 -0.20744981 0.19826199
0.2730389 -0.35643804 0.3410965 0.07828073 0.2104205 0.07322023 0.15172164 -0.045715123
0.19452584 0.019282373 -0.20902365 0.08846538 -0.17214526 -0.06549009 -0.12817696 0.31631106
-0.18646744 -0.12041423 -0.071479835 -0.17409837 0.072460346 -0.2606887 0.39893314 -0.33494955
0.31736615 0.08962085 -0.13609427 0.24332765 0.020763125 0.18439318 -0.004747136 -0.11107065
0.15420774 -0.17217654 0.11016673 0.22378567 0.09277996 -0.1951961 0.26744872 0.12068427
0.1806339 -0.14223291 -0.3415069 -0.1086737 -0.3361101 0.39846364 0.09502259 0.14224997
0.093767636 0.008569489 0.32442623 -0.3599846 0.0499273 -0.30897963 0.14725308 -0.1412732
0.1657504 -0.1281101 0.34259522 -0.2950698 -0.24462791 -0.25060302 0.36321878 0.19287983
0.31379223 -0.26579866 -0.34784576 -0.24668114 -0.2641875 0.17791906 0.14313193 0.29961094
-0.23499635 -0.31988242 0.21521086 -0.12369341 0.20956767 -0.10613385 0.17806551 -0.24503595
-0.12351237 0.17337088 0.07769041 -0.14726678 0.21705621 0.28575623 -0.32446066 -0.20141384

cnn.1.weight f4 [32]
00000000: adef 083f 8f69 203f e28c 193f 2cf4 213f
00000010: cf7d 243f 844e 023f 16ae 143f 6cbc 173f
00000020: 749a 103f d22d f63e be84 2a3f 0876 003f
00000030: 9e3f 123f 6803 253f c907 0d3f 4f97 253f
00000040: de4e 233f 7056 3a3f 96ce 073f 39da 3c3f
00000050: fc77 293f b666 113f 59ff 303f 3e92 263f
00000060: 14f3 043f 8a05 323f 93c1 2f3f a60c 143f
00000070: a221 ff3e 897b 0f3f ac2b 033f cc71 2a3f
0.53490716 0.6266107 0.59980595 0.632632 0.6425447 0.50901055 0.58078134 0.59271884
0.56485677 0.48081833 0.666088 0.501801 0.5712832 0.6445832 0.55090004 0.64684004
0.63792217 0.72788143 0.530496 0.7377048 0.66198707 0.5679735 0.6913963 0.650669
0.5193341 0.695397 0.68654746 0.578318 0.49830347 0.56047875 0.51238513 0.6657989

cnn.1.bias f4 [32]
00000000: 2fc4 4bbd 010c 9fbd 9bf3 05be 05ad fb3d
00000010: b0db a9bd ea4c ecbd 750a 45be d0aa bbbb
00000020: 364d 93bd 5ee0 24bd d78d e0bc 461c 44bc
00000030: e4ed 44ba 8318 2cbd 5cf8 bdbd 1288 dfbd
00000040: 9613 31bd 592d 6fbd 08be a1bd 4177 f93c
00000050: 9113 8bbd b645 4f3c 0762 e6bd 2e7b debd
00000060: 8192 c6bd 35a7 94bc 4466 d7bc c2e5 16be
00000070: 2c01 21be db72 4cbd 4d82 703d 642d 8abd
-0.049747642 -0.077659614 -0.1308121 0.1228886 -0.08293855 -0.11538108 -0.1924227 -0.0057271495
-0.07192461 -0.040253036 -0.027411385 -0.011969632 -0.0007512255 -0.042015564 -0.092758864 -0.10914625
-0.04323157 -0.058392856 -0.07897574 0.030452373 -0.06790841 0.012650898 -0.11249166 -0.108633384
-0.09695912 -0.018146137 -0.026293881 -0.14736083 -0.15723103 -0.049914222 0.058718015 -0.06746939

cnn.1.running_mean f4 [32]
00000000: 49d6 e43c acc5 993c 9138 b23c fbf2 a83b
00000010: b431 133d 2276 623c 3338 c6bc 1ac8 273c
00000020: 5ab9 ffbc f473 f5bc 7308 013d 1cfa 853c
00000030: c0e7 863c 513a 2fbc d919 103d 953a 823c
00000040: af02 cdbc b29a 79bb 0eb1 df3c 8fa3 24bb
00000050: 6e85 15bc 54a3 0cbc 9b2d 85bc d4f9 ce3c
00000060: 1657 cbbc 23d0 e0bc 86d4 8b3c 555e 9bbc
00000070: 7763 be3c 3616 83bc e6ec 483c c314 a2bc
0.02793421 0.018771015 0.021755489 0.0051559187 0.035936072 0.01382211 -0.02419672 0.010240579
-0.031216312 -0.029962517 0.0315022 0.016354613 0.016467929 -0.010695056 0.0351809 0.015897075
-0.025025694 -0.003808659 0.027306106 -0.0025121903 -0.00912605 -0.008583862 -0.016257098 0.025265612
-0.0248218 -0.027442997 0.017069113 -0.01896588 0.023240788 -0.016001802 0.012263512 -0.01978529

cnn.1.running_var f4 [32]
00000000: 3554 d63d 75e6 5f3d 1636 ba3d 01f5 9c3d
00000010: 0f70 0a3e b029 ef3c 6f54 963d 0fcb 3b3d
00000020: 3e4b d23d e104 db3d 9e40 413e 5ec3 3f3d
00000030: 7014 0f3d 0c13 e43c 51dd 063e 3248 763d
00000040: 9a66 e23d e57b b23d fa48 9f3d 74e0 8d3d
00000050: 6904 2a3d acae c23c 0e78 db3d f878 033e
00000060: 88a8 193e ab90 f33d bce6 9d3d b969 9f3d
00000070: 5813 933d e5f3 6b3d d5ba 0a3d dd94 d93d
0.1046528 0.05466314 0.09092347 0.07663918 0.1351931 0.029194683 0.07340323 0.04584795
0.102682576 0.1069429 0.18872306 0.046817176 0.0349316 0.027841114 0.13170363 0.060127445
0.11054726 0.08715037 0.07777591 0.06927577 0.041508112 0.02376493 0.10716258 0.12839115
0.15005696 0.118928276 0.07710025 0.07783837 0.07181424 0.057605643 0.033869583 0.106240965

cnn.4.weight f4 [64, 32, 3]
00000000: c9e4 933d 2606 b4bc 21f6 10bd 1d1e 94bc
00000010: 911d a6bc 11d6 8d3b e8ab 6f3c d412 c3bd
00000020: 020a 56bc 5262 34bb b627 91bd c5d9 5fbd
00000030: 7d75 cabc a3b8 c53b 8e2d 923d 7d06 463c
00000040: d2de 1d3d f374 8cbd fc1f b6bd 9758 08bd
00000050: 9211 31bd dc35 0dbd 96fa a2bc 38ac f43c
00000060: 775b 54bd 1db4 f8bc 12df 69bd 5b3d bbbd
00000070: cc8f 2dbd 749f 7dbd ebb2 8ebd 6883 3bbb
00000080: 672f a03c 0e7b 32bd 3e09 563d 10e5 143d
00000090: b98d efbb 02a2 713d 7c6a 4fbd 2311 f8bd
000000a0: 0253 05bd cf27 1abd c1a1 2e3d d8f1 383c
000000b0: 43d6 15bc f10c bfbc 6a97 9c3c 5515 50bd
000000c0: cd1b f13b f18d 3a3c 59ee 413d 4a98 753d
000000d0: 90b3 8d3d a1c4 b13c b9cf 123d 1c11 e93b
000000e0: 51a8 8ebc b171 88bd 1a71 7a3d ca08 9fbd
000000f0: 8cac 173c e41d 173d bf96 1bbd c8b0 efbd
00000100: b1ca 893d fc33 aabc 096c 823d f8bb f6bc
00000110: dd86 593d 42c7 aa3a 9738 1dbd 5897 db3c
00000120: ecea 213d 3294 1bbc 4fd6 df3b 5575 8c3c
00000130: f9e3 543d a335 f63c 51cf b6bb ed5c 17bd
00000140: d7f6 f0bd 145e afbc 14c1 413d 0531 d5bd
00000150: 088f 1bbc 0263 503d 8f38 5c3b 017e 9cbc
00000160: 1c72 053d dbe5 ae3d 0fe7 adbc e6f2 eeba
00000170: 1d08 2d3b 267d 3f3d 9f98 833b cb75 773c
00000180: 7a1e 82bd 1364 b4bc 326c 813c d782 e23c
00000190: fc36 babb 3ec0 d1bc 27bc 30bd dc63 053d
000001a0: 64ed f7bc aa93 4a3c 9df5 e73d 4053 c7bd
000001b0: 0f2f 963b d413 3c39 4892 563c cd32 c0bd
000001c0: 593c ddb7 e0ce 26bc ae16 2e3d 832a b4bc
000001d0: f25e 2ebd 1d52 0cbd ac27 debc 8bce 7e3d
000001e0: 559b dd3c 41f8 d5bc fdc5 8d3c 2114 4ebb
000001f0: a4f7 57bd b147 523c 5dfa 243d cbae 87bb
00000200: 3472 96bc 80e6 423d b1ba 443c 926a a83c
00000210: b2ca c2bd e865 18bd 22fb dc3b dff2 5a3c
00000220: 3665 eabc b621 00bd f52f 31bd 5313 6f3c
00000230: b001 c93c 304e f6bc 1181 403c 6a71 9cbd
00000240: e6c7 693c 5103 ffbc b158 88bb 101d ffbb
00000250: 865b 85bb 6cc3 703c 5241 27bd 62d5 e93c
00000260: 3559 943c 88b2 b23c 30b7 dabd bb29 57bd
00000270: 0069 ff3c 670c ddbc c5ed 3c3d 0be2 f6bc
00000280: d9b0 6c3b 1928 a6bd b093 703d b938 a93b
00000290: e2bb 303d b728 4bbd 071f 9b3d 7eb1 85bd
000002a0: 8a1f fc3c 2551 8a3c a7b6 31bb 4100 fbbb
000002b0: bb08 8cbc 4342 083d a0c9 30bd 5379 06be
000002c0: ae59 ab3c 6aa7 2b3d eb1e 243d 36c5 7ebd
000002d0: 59f2 d0bb 66ad 3d3c a593 e9ba 77a5 8fbd
000002e0: 6f97 03bd 82a2 043d a3ad 243d 4e68 00bd
000002f0: d531 bc3b 6f5d c53b 6c9b 2cbd 847f 633d
00000300: 4de2 5e3b 459b 9abc a87b 363b 99a6 99bc
00000310: 9325 76bd c7f1 39bd 456f d23b 7e2b 03bc
00000320: adf0 293b 7f87 d4bc 6d6a 6c3c 73bf 01bd
00000330: 1898 c4bc de36 20bd 6303 813b e078 b1bc
00000340: a85f 84bc 4eb3 5ebc 2c7b d9bc a4aa 203d
00000350: 3ef3 71bc e1b7 813c f783 063d 7dc2 9dbc
00000360: 4cd8 91bd 281e 09bb 4a5f 913d 2fe5 19bc
00000370: 2e24 313d 4444 8d3c 1c4d c73c 832e 7b3b
00000380: 057c 74bd eefe 4d3b 7e28 133d 80f7 27bc
00000390: a189 66bb a7c9 30bc 0e89 a0bc 8eb6 abba
000003a0: 9ee5 123d a367 7ebd 6fe1 08bc f4f4 4dbc
000003b0: 3b63 99ba d671 64bd 67aa 093d 5a02 0dbd
000003c0: 56dc b43c 6160 2b3d 9129 6bbd ebaa e23c
000003d0: f6bb 1036 8314 79bd 52db dfbc bdd6 15bd
000003e0: 3f40 4eb9 02b3 323d 2ec0 cc3d f35c f0bd
000003f0: c4ac 11bc 9257 e63c 1642 01bd f404 123d
0.07221372 -0.021975588 -0.035390977 -0.018080765 -0.02027777 0.004328497 0.014628388 -0.095250756
-0.0130639095 -0.0027524424 -0.070876524 -0.05465104 -0.024714226 0.0060339733 0.07137595 0.012086508
0.038542576 -0.06858244 -0.08892819 -0.03328761 -0.043229647 -0.034475192 -0.01989488 0.029867277
-0.05184504 -0.030359322 -0.057097502 -0.09142562 -0.042373464 -0.061919644 -0.0696772 -0.002861226
0.019553853 -0.043574385 0.052254908 0.036351264 -0.007310596 0.058992393 -0.05063866 -0.121126436
-0.032549866 -0.03763562 0.04263473 0.011288129 -0.009145322 -0.0233216 0.019115169 -0.050801594
0.0073580504 0.0113863805 0.047346447 0.059959687 0.069190145 0.021700205 0.03584263 0.0071126353
-0.017414244 -0.0666231 0.06114302 -0.07765348 0.009257447 0.03689374 -0.03798556 -0.1170364
0.067281134 -0.020776741 0.06368262 -0.030118927 0.05310713 0.0013029354 -0.038384046 0.026805565
0.03953068 -0.009495782 0.0068309675 0.017145792 0.051975224 0.030054873 -0.0055789133 -0.036953855
-0.11765831 -0.021407165 0.047303274 -0.1040974 -0.0094945505 0.05087567 0.0033603047 -0.019103052
0.032579526 0.08539935 -0.021228341 -0.0018230348 0.002640254 0.04675021 0.0040159966 0.015103768
-0.06353469 -0.022020375 0.015798662 0.02765028 -0.005682824 -0.025604364 -0.043148186 0.032565936
-0.030264564 0.012364307 0.11326144 -0.097326756 0.0045832465 0.00017936464 0.0130964 -0.093846895
-2.6373355e-05 -0.010181159 0.042502098 -0.021992927 -0.042571016 -0.034257997 -0.027118526 0.062208693
0.027051607 -0.026119353 0.017306322 -0.0031445103 -0.052726403 0.012834475 0.040277828 -0.00414071
-0.018365003 0.047583103 0.012007401 0.02055863 -0.09511317 -0.03720656 0.0067438046 0.013363569
-0.028612714 -0.03128215 -0.043258626 0.01459201 0.024536937 -0.03006658 0.011749522 -0.076388195
0.014268851 -0.031129511 -0.0041609635 -0.007785447 -0.0040697483 0.01469503 -0.04083378 0.028544132
0.018108943 0.021813646 -0.106794715 -0.05253003 0.031177998 -0.026983453 0.046125192 -0.030137083
0.0036116152 -0.08113117 0.058734596 0.0051642326 0.04314793 -0.049599376 0.07574277 -0.065279946
0.030776758 0.016884396 -0.0027116926 -0.0076599424 -0.017094007 0.033266317 -0.043161035 -0.13132219
0.020916786 0.041907705 0.04006855 -0.062199794 -0.0063765463 0.011576986 -0.0017820491 -0.07013982
-0.03212684 0.032381542 0.040204655 -0.031349473 0.005743245 0.006023101 -0.04214041 0.05554153
0.0034009397 -0.018872866 0.00278447 -0.018756198 -0.060094427 -0.045396592 0.006421956 -0.008005975
0.0025930807 -0.025943516 0.014429671 -0.03167672 -0.023998305 -0.039114825 0.0039371713 -0.021664083
-0.016158894 -0.013592554 -0.02654799 0.039225236 -0.014767466 0.01583475 0.032840695 -0.019257778
-0.071213335 -0.0020922516 0.07098253 -0.0093930205 0.043247394 0.017244466 0.02432876 0.0038327284
-0.059688587 0.0031432468 0.03592729 -0.01025188 -0.0035177248 -0.010790265 -0.019596603 -0.001310067
0.03586351 -0.062110554 -0.008354529 -0.012570608 -0.0011702547 -0.055772625 0.033609774 -0.03442607
0.02207772 0.04183996 -0.057412688 0.02766939 2.156708e-06 -0.060810577 -0.02732626 -0.036581744
-0.00019669624 0.043627746 0.09997593 -0.11736479 -0.008891288 0.028117929 -0.031557165 0.035649255

cnn.5.weight f4 [64]
00000000: 79a1 0a3f c351 f03e 7b07 cd3e 772d fb3e
00000010: 652a dd3e 938b 093f 6e52 c43e 6926 ef3e
00000020: efb0 fa3e e887 dd3e 3eb3 dd3e ee24 e63e
00000030: d550 e93e 1546 d43e 01e3 063f 1248 fd3e
00000040: c9d7 db3e 35fc 013f 99e5 063f b489 0e3f
00000050: f8c5 ff3e a83c c73e c0d4 c53e 1e8a dd3e
00000060: 3e6c d03e 1cc7 cd3e 2836 ca3e df30 dc3e
00000070: 5831 e83e ebe7 b93e f57c 013f dc16 e23e
00000080: 4085 0f3f 4838 0d3f 36bd f03e 7efe e43e
00000090: 7b63 f93e 611e dd3e 675e e13e 286b 013f
000000a0: cd3d f13e 49ea ec3e cc96 013f ce38 f93e
000000b0: f700 e53e d90b e43e 2797 ca3e d095 f63e
000000c0: 5a7f 103f bffb c03e f7ab f43e d7b6 e73e
000000d0: e548 ed3e be3e fb3e e6e0 ef3e 6961 ef3e
000000e0: 0288 ef3e 3236 fa3e c042 063f eaec 113f
000000f0: 3d07 f83e b525 0d3f 232f 0b3f c82c 053f
0.5415264 0.4693738 0.4004477 0.49058124 0.43196407 0.537286 0.3834414 0.46708992
0.48963115 0.4326775 0.43300813 0.4495005 0.45569482 0.41459718 0.5269013 0.49469048
0.42938069 0.5077546 0.5269409 0.5567887 0.49955726 0.38913465 0.38638878 0.43269438
0.40707582 0.4019097 0.39494443 0.43006036 0.45350146 0.36309752 0.50581294 0.44158065
0.560627 0.55164003 0.47019356 0.44725412 0.4870871 0.4318724 0.44017336 0.5055413
0.47117463 0.46272495 0.5062072 0.4867615 0.447273 0.4454029 0.39568445 0.48161173
0.56444323 0.37692067 0.4778745 0.45256683 0.46344677 0.49071306 0.4685127 0.46754006
0.46783453 0.48869473 0.524456 0.5700213 0.48443022 0.5513566 0.543688 0.52021456

cnn.5.bias f4 [64]
00000000: 7bfd 16be c288 37be abd2 12be 286c d7bd
00000010: 0256 a9bd ed34 efbd 92f0 8cbd 1455 90bd
00000020: 61ac 3ebd 6517 c0bd 5dd0 1cbe c8c5 18be
00000030: b1dc 6ebc f07d e6bd 9343 0abe 57ce 19be
00000040: 771b 9abd 868a 0dbe f9bf 90be d1a6 2dbe
00000050: 0f01 44be 9997 68be 622c d0bd 684a 34be
00000060: 9c9c 5ebd 5fac 37be 7d85 30bd 9d0f ffbd
00000070: f320 99bd 2a98 ddbd 34f2 03be 866e 81be
00000080: d642 afbd 3a9c d0bd aeeb 08bd 43a3 eabd
00000090: bf0a 15be 9701 49be 2e83 7cbd 5597 03be
000000a0: b186 6dbd 7d22 a1bd 6476 15be e42c fcbd
000000b0: d2da 56be 9a00 16be fe31 8abd b82f 61be
000000c0: 203d 16be 51e5 48be 423e 23be 309d e6bd
000000d0: 56f2 43be 6ee2 6bbd 451b fbbd 2023 91bd
000000e0: 4901 d3bd a4b6 39be a05e c1bd 59ed 44be
000000f0: 07da 08be fb96 f3bd 978c 31be cb75 42be
-0.14745133 -0.17923263 -0.14338176 -0.10518676 -0.08268358 -0.11680017 -0.06881823 -0.07047477
-0.046551112 -0.09379462 -0.1531386 -0.14919198 -0.014578984 -0.112544894 -0.1350234 -0.15020119
-0.0752477 -0.13822374 -0.28271464 -0.16958167 -0.19141029 -0.2271408 -0.10164715 -0.17606509
-0.054348573 -0.17936848 -0.043096054 -0.1245415 -0.07476988 -0.108200386 -0.12885362 -0.25279635
-0.0855767 -0.10186048 -0.033427887 -0.11456921 -0.1455488 -0.19629513 -0.06164854 -0.12850697
-0.05798978 -0.07867906 -0.14595944 -0.1231325 -0.20981911 -0.14648667 -0.067478165 -0.2199086
-0.14671755 -0.19618727 -0.15941718 -0.1126045 -0.19135413 -0.057588987 -0.122610606 -0.07086778
-0.103029795 -0.18136078 -0.094418764 -0.19231166 -0.13364421 -0.118940316 -0.17338787 -0.18990247

cnn.5.running_mean f4 [64]
00000000: c20f 25be 357b 06be 22a6 4fbe d308 65be
00000010: 427b 4dbe cbec 72be 48de a2be bcad 00be
00000020: 8bd5 d8bd 7f6e 25be 5e3b 0fbd 9e59 17be
00000030: f825 69be d990 43be c1d3 79be 77a3 3dbe
00000040: 5aca 56be e593 49be a3ac 213c e244 06be
00000050: 4fa2 93bd 2ad9 093e 8b8d 3bbe 773c efbd
00000060: a5ee 1abe 94f0 ee3d 78a1 72be f8db 3fbc
00000070: 7caa fabd 339a 0dbe 0f8f 323c 0466 a8bd
00000080: 5244 71bd c230 9ebe 0837 6cbe 668b 7cbe
00000090: 4478 c6bd 0cbb 64bd 6914 06be 26cf 60be
000000a0: c537 36be ca82 ecbd ada6 14be cc3b c6bd
000000b0: 46bd ee3c bc0a 3cbe bc49 84be 1e60 00be
000000c0: 24e6 37be 29fd 333c abda 81bd 4348 a9bc
000000d0: f133 1cbe 9e3d 0bbe 8608 0cbe 5268 2ebe
000000e0: 1e5c 3ebe 3493 a8bd 4fd8 f0bd d7b6 4dbe
000000f0: 2a97 0abe 22c6 0ebe ee90 babd 76c9 37be
-0.16119292 -0.13132937 -0.20278218 -0.22366647 -0.2006655 -0.23723142 -0.31810212 -0.12566274
-0.10587605 -0.16155432 -0.034968726 -0.1478028 -0.2276839 -0.19098224 -0.24397184 -0.18519388
-0.20975628 -0.19685324 0.00986782 -0.13112214 -0.07208692 0.13461748 -0.18315713 -0.11681455
-0.15130098 0.116669804 -0.23694408 -0.0117101595 -0.122395486 -0.13828354 0.010898366 -0.08222583
-0.058903046 -0.30896574 -0.23067868 -0.24662551 -0.096909076 -0.055842444 -0.13093723 -0.21954021
-0.17794712 -0.115483835 -0.14516707 -0.09679374 0.029142987 -0.1836347 -0.25837505 -0.12536666
-0.17958885 0.010985651 -0.06340536 -0.02066434 -0.15254189 -0.13597724 -0.13675126 -0.17031983
-0.18589827 -0.08231202 -0.117600076 -0.20089279 -0.13534227 -0.13942769 -0.091096744 -0.17947945

cnn.5.running_var f4 [64]
00000000: ee3f 4b3d fc29 953d 41be 903d dffd da3d
00000010: 08ff b63d 3a8f e23d b221 dd3d f45d 8a3d
00000020: 9d44 883d fd05 8e3d 4139 423d 05ca 993d
00000030: b0bb 8b3d eec9 dc3d cefe b73d 779b 3d3d
00000040: c3a9 843d f749 a03d b2d6 ec3c f350 553d
00000050: a90f 0f3d 9115 8b3d 5227 693d 0ad1 f43d
00000060: 39ee 3f3d 79d0 503d 268f b33d 5d19 513d
00000070: a8a7 1b3d 363e 183d a2c7 333d c9e1 b73c
00000080: 8f05 6f3d ff0e c63d 3601 d13d 2146 953d
00000090: def0 653d 5b78 de3c ab31 843d ed94 d13d
000000a0: 881e 8f3d a785 ad3d 41fe 883d e7e6 643d
000000b0: 79b8 b03d 2b10 4b3d e02d a43d 5772 483d
000000c0: cf4b 9a3d 8db5 3f3d 871d 183d f899 2a3d
000000d0: c27c d43d 4ff9 5a3d 6849 8b3d a9c4 933d
000000e0: 9728 123d 7caf 103d 481f 0b3d 8fa4 b83d
000000f0: c56f 6f3d f105 673d 076d 3b3d 4297 563d
0.049621515 0.072833985 0.07067538 0.10692953 0.08935362 0.110624745 0.107974425 0.067562014
0.06653712 0.06934736 0.047417883 0.07509235 0.06822908 0.107807025 0.08984147 0.04629084
0.06477692 0.07826608 0.028910968 0.052079152 0.034927044 0.06791223 0.056922264 0.119539335
0.046858046 0.050980065 0.08767538 0.05104958 0.038001686 0.037168704 0.043891557 0.02244653
0.05835491 0.09670829 0.10205309 0.07288767 0.056137912 0.027157 0.06454786 0.102334835
0.06988245 0.08472758 0.0668912 0.055884268 0.08628935 0.049575966 0.080165625 0.048937168
0.075339906 0.046804 0.037137534 0.041650742 0.10375358 0.053460415 0.068011105 0.07215244
0.03568324 0.035323605 0.03396538 0.09015762 0.0584562 0.05640215 0.045758273 0.052390344

cnn.9.weight f4 [128, 64, 3]
00000000: f1ee 2cbd 9d13 a63a 4c21 96bc 2e3f b63c
00000010: bd07 37bb e0b9 aa3d 8d58 363d 885e 6abc
00000020: 50d0 46bd e94e f13b 23f9 1c3c 66f4 1b3d
00000030: 3cf3 0dbd 5673 03bd 5b58 b03c cf22 5abd
00000040: 9484 52bd e462 913c afaa e53c aea2 2e3c
00000050: 1510 81bd 1edf 483d 658b c8bc 33f3 1ebd
00000060: 5a7e 863c 36b4 ea3b 430f c4bb 281e c4bc
00000070: d44e 0abd 23dc e2bc 418d 513d 24f4 03bd
00000080: 4481 40bd c3d4 993c 485f 913b 3380 b13c
00000090: 7c45 2fbd c9dc 89bc f200 4e3c 85aa b8bd
000000a0: ad2b d7ba cdd5 b83c 96e7 b1bb 112a 2dbb
000000b0: 5bff 82bc b06d 103c b687 b33c 4770 e0bc
000000c0: 4c67 c83c 6bf0 203d 18c7 63bd 045c 26bc
000000d0: d1f1 97bd 17bc c6bc 19a7 cf3b 5ede 233d
000000e0: 1221 ae3c b579 18bc 007d 143c 9fce 5c3d
000000f0: 95df 883d 1f7e 1ebd 3b0e b7bc 44da 43bd
00000100: bc9c bf3b 71aa 90bb accc 20bd 4a26 f73c
00000110: f1ea 05bd 09af 4c3c 00bf 243c 81a0 b13b
00000120: 831f ffbc 1dca e5ba 0ea1 8b3c 4be8 42ba
00000130: c589 02bd 6c1c 78bd 397a 26bd aeea c4bb
00000140: eaf4 593d 6c5e 193b c996 59bd ae8d 8f3a
00000150: 66d5 ae3b ddff ccbc e613 1e3d 28a9 fdbc
00000160: a851 293c 534d adbd 828a 09bd fe56 12bd
00000170: fb7d 64bd bbb9 263d a8dd 283c 2f6d 36bd
00000180: e271 e1ba 0a5f 4e3b f16d 623d 8064 06bc
00000190: f2b9 e3bb bcb5 b73d cea1 70bc dab2 dfbb
000001a0: 9dcf b33b b5a7 84bc 09f9 23bc c6ab d3bb
000001b0: f485 81bc aa57 0dbd e416 803d 68fc 113c
000001c0: 6065 9fbd e1db 00bc 280f 4ebc 0fdb d23c
000001d0: c340 5bbc ce80 133d 9683 2dbd 953b 1dbd
000001e0: b800 b73c d089 60bd 9af6 e6bd 6661 04bd
000001f0: 5c00 63bb 8ce4 503d d785 783d e9f4 7cb9
00000200: 92ea 09bd 64db 443d 7f44 6fbc 3ba1 b2bb
00000210: 3c33 80bc 8df4 4dbb b180 a13c 3f01 bd3a
00000220: cc41 a23c 951f eb3c 1f8b 1f3b 2fdd 9c3c
00000230: f06d bd3c 7df2 f53a 65d2 c03c 98a7 74bc
00000240: 1b42 063c 39d1 6e3c 8ea9 01bc 1cca af3c
00000250: 0910 b7bc 1129 07bd 48e7 23bc a090 123c
00000260: cb3e 5d3d a5ad a6bc c445 a73c e7cb 8d3c
00000270: b8d4 20bc 5a11 783c 80bb ccbc ed5d d2bc
00000280: 5aaa 31bc 5767 5fbd 0db8 19bb 5f46 2cbd
00000290: a3d3 6cbb 1e6f 92bc cd5a e6bc 74ae 5abd
000002a0: 771c 00bb bd1f 6ebc 9418 913b 5f41 b93c
000002b0: b588 56bc 576c 09bd 1807 473d 3ce2 8fbd
000002c0: 0735 423d c4fa b03d 490c 03bd 4a01 9dbc
000002d0: 6c8c 14bc ded1 b13c 8570 46bd 7060 b8bb
000002e0: f269 ff3c 155e 78ba ba10 fabb 0e3d 683c
000002f0: f709 edbc 59dd b63d d2f5 67bd db3d a0bb
00000300: 6301 0abd 37aa d83c 6a93 363c cb9a 5d3c
00000310: 3392 953c 112c fabc b325 b0bc 32fa 8dbd
00000320: c1bf 273c 193c b73d 7225 0cbd b927 b939
00000330: f0aa 4bbc a5b4 dfbc 9112 d9bc 35c8 23bd
00000340: 6e2d 72bb 859b 523d 3f7b 803d 25a1 d2bc
00000350: 8ec2 a33c 4b57 d83c 3e4d 623c 7618 43bc
00000360: 548d 453c aedf 94bc 9e6e bf3c e194 11bd
00000370: 5a36 0d3b d18d e9bc 9c64 263d c0d4 3cbd
00000380: 6a25 42bd 8ab3 f6bb ba0e 423c f6ae 20bd
00000390: 7b0d ad3b c801 4fbd 94b7 853c 98f1 813d
000003a0: ca43 7cbc a184 d6bc 4b18 073d 384d efbd
000003b0: 073f 083d e3b7 2cba 267a 9cbc c286 853c
000003c0: 3f73 c23b 2c85 7ab8 e597 b23b bcf5 99bd
000003d0: 15f7 1dbc 4878 ec3b 7e1b 5bbc e329 143d
000003e0: 8186 793c 8b3a 463d 0ce2 423d ab1e f1bc
000003f0: b751 9fbc 93fc ce3c 0347 463c 0cf1 823c
-0.04222006 0.001267064 -0.018326424 0.022246923 -0.0027928196 0.08336234 0.044518042 -0.014304765
-0.048538506 0.007364143 0.009580883 0.038074873 -0.034655795 -0.032092415 0.021526506 -0.053255852
-0.051395968 0.01774735 0.02803549 0.010658903 -0.063018955 0.049040906 -0.024480531 -0.03880615
0.016417671 0.007162596 -0.0059832647 -0.02394016 -0.033766583 -0.02769286 0.0511601 -0.032215253
-0.046998277 0.01877821 0.0044364072 0.021667575 -0.042790875 -0.016828911 0.012573468 -0.09016899
-0.0016416215 0.022562886 -0.0054292185 -0.0026422779 -0.015990904 0.008815214 0.021915298 -0.027397288
0.024463318 0.03929178 -0.055609792 -0.010153774 -0.0741917 -0.02425961 0.0063370583 0.040006988
0.021256004 -0.009306361 0.009063005 0.053907987 0.0668327 -0.038694497 -0.022345653 -0.047815576
0.0058475416 -0.0044148494 -0.03925769 0.030169625 -0.03269476 0.0124929035 0.010055304 0.005420745
-0.031142956 -0.0017531548 0.01704457 -0.0007435127 -0.03186967 -0.06057398 -0.040643904 -0.0060094213
0.053212084 0.0023402227 -0.053122316 0.0010952258 0.0053354977 -0.025024349 0.038593195 -0.030964449
0.01033441 -0.08462014 -0.033579357 -0.035727493 -0.055784207 0.04070447 0.010306753 -0.04453772
-0.0017200077 0.0031489753 0.05528063 -0.008202672 -0.0069496566 0.0897021 -0.014687015 -0.0068267407
0.005487396 -0.01619325 -0.010008105 -0.006459686 -0.015810944 -0.03450743 0.06254366 0.008910276
-0.077830076 -0.007864923 -0.012576856 0.02573922 -0.01338214 0.03601151 -0.04236182 -0.0383869
0.02233921 -0.05481893 -0.11277504 -0.03231945 -0.0034637665 0.05099921 0.060674515 -0.00024123829
-0.03367097 0.04806079 -0.014603733 -0.005451349 -0.01564943 -0.0031426281 0.019714685 0.0014419927
0.019806765 0.028701583 0.0024344397 0.019148437 0.023123711 0.0018764284 0.023537824 -0.014932536
0.008194472 0.01457625 -0.00791396 0.021458678 -0.022346513 -0.03299815 -0.010003872 0.008945614
0.054014962 -0.020346472 0.020419009 0.017309142 -0.009816341 0.015140856 -0.02499175 -0.025679553
-0.010843838 -0.054541912 -0.002345565 -0.0420593 -0.0036136888 -0.01787525 -0.028119469 -0.053389028
-0.0019548216 -0.014533934 0.004427979 0.02261418 -0.013094117 -0.033550587 0.04859075 -0.07025573
0.047413852 0.0864158 -0.031994138 -0.019165654 -0.009066682 0.021706518 -0.04844715 -0.0056267306
0.031178448 -0.00094744685 -0.0076313885 0.014174713 -0.028935416 0.089289375 -0.056630917 -0.0048901862
-0.03369273 0.026448352 0.011143545 0.013525675 0.01825819 -0.03053859 -0.021502351 -0.069324866
0.010238589 0.089470096 -0.034215398 0.00035315545 -0.012430891 -0.027307818 -0.026498111 -0.039985854
-0.0036953348 0.051417846 0.06273507 -0.025711605 0.019990232 0.026408812 0.013812361 -0.011907687
0.012057621 -0.018173065 0.023368176 -0.035542373 0.0021547289 -0.028510006 0.040623292 -0.04610133
-0.047398962 -0.007528727 0.011844331 -0.039229356 0.005281148 -0.050538808 0.016322888 0.063449085
-0.015397022 -0.02618629 0.032982152 -0.1168465 0.033263233 -0.00065886806 -0.019101214 0.01629961
0.0059341486 -5.972867e-05 0.005450236 -0.07517573 -0.0096414285 0.007216487 -0.013373254 0.03617276
0.015229822 0.048395675 0.047578856 -0.029433569 -0.019448144 0.025266921 0.012101891 0.01598408

cnn.10.weight f4 [128]
00000000: 3fec ab3e d81c a63e ee6c c63e cbf6 ef3d
00000010: a6c4 623e 9e0d d33e daf0 c33e 24f4 8e3e
00000020: 497f c83e 8c18 913e 1c31 a23e 8533 c93e
00000030: fd84 a13e 9c9e 903e 8b41 943e ed27 b33e
00000040: c22a 9f3e 2887 583e d120 ae3e 0b63 b43e
00000050: 5ded 483e d500 8c3e cac9 af3e 9e82 6c3e
00000060: 89e6 a93e f182 c63e ce8f 953e ee0f b63e
00000070: f34e 053e 5995 073e 77f1 a43e 85fb b63e
00000080: 68ce 203e fe3b b43e 6c95 913e cba9 9b3e
00000090: c56b bf3e 38b7 cc3e 70c9 ac3e c73a be3e
000000a0: bf9a 993e 58dd bb3e 27d8 d23e f7a9 613e
000000b0: 742e 8f3e c5ed de3e 5a4b ba3e fb4e a83e
000000c0: 48bd c63e 993d bb3e 97ed aa3e 639f c83e
000000d0: a447 d33e 95e1 c23e 1fc1 443e 01e6 8a3e
000000e0: 18bd 9c3e 5a18 6e3e 1722 593e 424f be3e
000000f0: 951a a03e 30db ab3e 2722 b03e 7191 e13e
00000100: 229c df3e fe8b 9c3e 8083 a53e 598a c33e
00000110: 5745 ce3e 9a3b 893e 9f28 8f3e a712 f03e
00000120: 8800 b13e ff79 b13e 6898 983e d42e 3c3e
00000130: 841d 3f3e 5b2c 993e 3a07 be3e cb83 be3e
00000140: 84d8 2c3e bc6e c23e 2d95 733e 46e0 9b3e
00000150: f063 c53e 0bbf b43e 6123 813e 10b9 963e
00000160: e653 bb3e c52a b73e 9a39 803e 6384 bb3e
00000170: 7237 9c3e 011e 863e c4b8 383e 7350 853e
00000180: dbc0 973e 8047 bc3e 3806 2c3e f7a9 c03e
00000190: 2463 573e 4738 b73e d6b0 583e 488c 673e
000001a0: 3179 b23e cf5f 823e f8b4 9d3e b2d4 b33e
000001b0: 0449 323e f24a d23e 1ffd 323e ceb6 863e
000001c0: 0743 c63e d8a3 0d3e c2cb ba3e 204f b03e
000001d0: e93f a23e 5d7c 8c3e b738 9a3e 38e2 633e
000001e0: 2ad3 823e a49a d43e 6141 b63e 3609 a43e
000001f0: e0e2 923e d567 bd3e 52ff 6d3e d13c 773e
0.3357868 0.3244388 0.38754982 0.11716994 0.22145328 0.41221327 0.38269693 0.2792064
0.3915961 0.2833904 0.31678092 0.3929712 0.31546775 0.2824601 0.28956255 0.34991398
0.3108731 0.21145308 0.34009412 0.35231814 0.19621797 0.27344385 0.3433364 0.23096702
0.33183697 0.38771775 0.29211277 0.35559028 0.13018398 0.13240565 0.32215473 0.3573877
0.15703738 0.3520202 0.28434312 0.3040298 0.3738691 0.39983535 0.33747435 0.3715422
0.30000874 0.3669231 0.41180536 0.22037493 0.27965128 0.4354078 0.36385614 0.32872757
0.38816285 0.36570433 0.33384392 0.39184102 0.41265595 0.3806273 0.19214295 0.27128604
0.30613017 0.23251477 0.2120441 0.37169844 0.3127028 0.33565664 0.34401056 0.44056275
0.43673807 0.30575556 0.3232689 0.38191488 0.40287277 0.26803285 0.2796068 0.4688923
0.34570718 0.34663388 0.29803777 0.18377239 0.18663603 0.29916653 0.37114888 0.37209925
0.16879469 0.3797511 0.23787375 0.30444545 0.3855281 0.35302004 0.25222304 0.29438066
0.36587447 0.35774818 0.25043947 0.3662444 0.3051105 0.26194766 0.18039232 0.2603794
0.29639325 0.367733 0.16799247 0.37629673 0.21033913 0.35785124 0.21161208 0.22612107
0.34858087 0.2546372 0.3080213 0.3512321 0.17410666 0.41072804 0.1747937 0.26311344
0.38723013 0.13832033 0.3648358 0.34435368 0.31689385 0.27438632 0.30121395 0.22254264
0.2555173 0.4152423 0.35596755 0.32038277 0.28688717 0.3699328 0.23241928 0.24144293

cnn.10.bias f4 [128]
00000000: df24 44be 3430 48be c155 3cbe 963f 91bd
00000010: bddf 84bd 41d8 6bbe 818e 3abe 4283 00bd
00000020: 5049 3dbe 5f88 17be 26c2 74be 5426 7bbe
00000030: 01e2 bebd b7d0 58be e125 0cbe 4c86 1cbe
00000040: a22a 56be 2ed1 ebbd 0779 55be c692 5bbe
00000050: dc50 60bd 6d58 babd 2d0d 5abe 96df efbd
00000060: 4075 36be d8bf 54be 15d1 16be adf2 5fbe
00000070: d97d 8fbd e117 90bd 211c 44bd 4027 7abd
00000080: 4ea8 9cbd 6e19 23be 0bf4 1abe f025 5fbe
00000090: 619a a5bd 172b 40be e41c 45be 0f9a 6fbe
000000a0: 9cc4 35be f11e 46be e5c7 7abe 9143 e1bd
000000b0: 12d1 2bbe 51a4 19be 551b 3cbe 0a81 6dbe
000000c0: 6636 49be 75bc 54be b546 55be 1654 d3bd
000000d0: 0d5a e9bd 021a e1bd 723f 83bd 8c39 0dbe
000000e0: 944a 31be 6c7f 13be a64d c4bd 5270 71be
000000f0: 2dda 4ebe 65cd e0bd 3442 39be 739f 4bbe
00000100: 443f 7cbe 971a 36be 63f2 1cbe fd8d 66be
00000110: 1a77 ebbd 1414 37be bded 42be 72d5 dbbd
00000120: 989c 3dbe 2b8f 6bbe ee57 eabd a119 b1bc
00000130: 6b91 6abd 8031 0bbe f906 0abe ccbe 2bbe
00000140: 4053 99bd facc 7dbd 9a20 26be 8181 0dbe
00000150: 650c 23be 7f2b 27be 5f22 15be 4d42 16be
00000160: 6e28 27be 3825 f1bd 80d1 35bd 6e42 5ebe
00000170: c47d 30be 178b 28be ed20 6dbd 931f 17be
00000180: 2a47 21be 7cd0 40be 1c0e 8ebd 2257 52be
00000190: b093 fabd b1b5 2fbe 5940 c9bc 92f6 f5bd
000001a0: 4102 1fbe 471d 74bd b5e5 18be 700f 24be
000001b0: caed b5bd 188f 1fbe 0778 6dbd f18c 24be
000001c0: 88cc 54be b366 77bd 1b83 08be 9590 fdbd
000001d0: 7217 42be 6b74 34be 0645 fbbd d201 16be
000001e0: ffbd 04be 1fa2 cfbd de02 3bbe d2a6 98bd
000001f0: cecf 1bbe daa8 64be 989c 1fbe 30f1 07be
-0.1915469 -0.19549638 -0.18392088 -0.07092206 -0.06487987 -0.23031713 -0.18218423 -0.031375177
-0.18484998 -0.14798115 -0.23902187 -0.2452634 -0.093204506 -0.21173368 -0.13686325 -0.15285605
-0.209147 -0.11514507 -0.2084695 -0.21442708 -0.054764614 -0.09098897 -0.21294089 -0.117125675
-0.17818165 -0.20776308 -0.14728196 -0.21869917 -0.070064254 -0.070358045 -0.04787839 -0.061072588
-0.07649289 -0.1592767 -0.15132158 -0.21791816 -0.08086086 -0.18766437 -0.19249302 -0.23398612
-0.17750782 -0.1934774 -0.24490316 -0.109992154 -0.16778973 -0.15004088 -0.18369801 -0.23193756
-0.19649658 -0.20775016 -0.20827754 -0.103187725 -0.11394129 -0.10991289 -0.064085856 -0.13791484
-0.17313606 -0.14404076 -0.09585123 -0.23578003 -0.20200415 -0.10976676 -0.1809166 -0.19885044
-0.24633509 -0.1778358 -0.15326838 -0.22515102 -0.11497326 -0.17878753 -0.19036002 -0.10734071
-0.18516767 -0.23003833 -0.114425525 -0.021618666 -0.057267588 -0.13593102 -0.13479222 -0.16772002
-0.07486582 -0.06196306 -0.16223374 -0.13818933 -0.15922697 -0.16325186 -0.14563893 -0.14673729
-0.16324016 -0.11774677 -0.044389248 -0.21705028 -0.17235476 -0.16459309 -0.05789273 -0.14758138
-0.15749803 -0.1882953 -0.06936285 -0.20541051 -0.122352004 -0.17159154 -0.024566816 -0.1200992
-0.15528204 -0.059598234 -0.14931376 -0.16021514 -0.08883245 -0.1558193 -0.057975795 -0.1606939
-0.20781147 -0.060400676 -0.13331263 -0.123810925 -0.18954256 -0.17622535 -0.122690246 -0.14649132
-0.12963103 -0.10138344 -0.18262812 -0.074536934 -0.1521599 -0.22330037 -0.1558708 -0.132756

cnn.10.running_mean f4 [128]
00000000: f924 d4bd 87e7 5dbc db4a 95bd e46f 08bd
00000010: 2854 ccbd 5253 40be 78e2 16be 5d94 c5bd
00000020: b242 f3bd 8dc9 3ebd cce2 f8bd 4a8d d8bd
00000030: 041d 39be 0569 5abd 33d7 acbd 4543 203c
00000040: 1b63 a4bd 1762 5fbd 77aa bfbd d100 2bbe
00000050: bf0f 513c 6d2e b9bd c1a7 59bd 52f6 a9bc
00000060: c43f a4bd ce71 c3bd a8bc debd d27c b4bd
00000070: 676c 063d 9c8d 3bbd 862d 0ebe 23fb 4dbe
00000080: c894 cdbd 3d03 ccbd af99 9ebd 324a 22bd
00000090: 672e 89be d5e2 79be d1a5 c7bd 0990 e1bd
000000a0: ac30 b6bd 0093 dabd 53f3 00bd 1883 19be
000000b0: 33f0 f2bd 8773 b7bd 258f dabd 4817 85bd
000000c0: 45d6 c6bd 9f96 1dbe 555c a0bd eaeb 33be
000000d0: 310b e0bd 1a12 fabc 3e80 a6bd c3ca f2bd
000000e0: c4ce 353d f913 d1bd 581f abbd 368f 36be
000000f0: e3e5 d4bd 4a6d acbd 6f63 8d3b 2823 41be
00000100: f08b 0abe 2696 fabd b77b 1dbe 4748 12bd
00000110: 1481 41be eb62 06be 7f69 93bd 32fc fcbd
00000120: 456a 41be c22d bcbd 83dc 1abd 7d00 f0bd
00000130: fccb ffbd 2b2c a2bd 3b81 34be 4275 b2bd
00000140: 717c 17bd 2d54 25be 4f79 31bd cae4 c0ba
00000150: 48e9 08be b321 5bbd cc5f e1bd 0d51 bbbd
00000160: dede 2fbe c7ef 20be 2c32 11be 6919 b2bd
00000170: 6f15 29bd 3086 6abd 867f 503c 75ed 5ebd
00000180: ebc4 10be d4d2 cfbd 6749 473d 25cd eabd
00000190: f9e1 663c 2c60 99bd a893 debd 6310 0dbe
000001a0: cb23 1fbe 6880 d0bd 104c 02be 6267 b0bd
000001b0: ce3c 79bd 1435 fdbd 7a58 eebc f781 a1bd
000001c0: 4aa4 d6bd 1338 07bd 3af4 33be de40 dabd
000001d0: de4c babd ebff c9bd 387e bfbd d4ca 00be
000001e0: d673 8cbd ddc5 1abe 7586 b6bd dc78 82bd
000001f0: 0e1f 4abd a065 17be 550f 8dbd 1ab1 e2bd
-0.103586145 -0.01354397 -0.07289668 -0.033309832 -0.09976989 -0.18781784 -0.14734828 -0.09647439
-0.118779555 -0.046578933 -0.12152633 -0.10573824 -0.18077475 -0.05332281 -0.084394835 0.009781663
-0.08026715 -0.054536905 -0.093586855 -0.1669953 0.012760102 -0.09042058 -0.0531385 -0.020747337
-0.08019975 -0.09543191 -0.10875827 -0.0881287 0.032818224 -0.045789346 -0.13884553 -0.20115332
-0.100381434 -0.09961555 -0.077441566 -0.03962154 -0.26793215 -0.24402936 -0.09748424 -0.11013801
-0.08896002 -0.10672569 -0.031482052 -0.14991415 -0.118622206 -0.08957582 -0.10671834 -0.06498581
-0.097088374 -0.15389489 -0.07830111 -0.17570463 -0.109396346 -0.03052621 -0.08129929 -0.1185508
0.04438664 -0.102088876 -0.08355588 -0.17828068 -0.1039541 -0.08419283 0.004314832 -0.18861067
-0.13529944 -0.1223567 -0.15379225 -0.03571346 -0.18896896 -0.13123672 -0.07197856 -0.1235279
-0.18888195 -0.09188415 -0.037807953 -0.11718843 -0.12490079 -0.079185806 -0.17627423 -0.087137714
-0.03698391 -0.16145392 -0.04332858 -0.0014716622 -0.1337024 -0.053498935 -0.110046 -0.091463186
-0.17174861 -0.15716468 -0.14179295 -0.08696253 -0.041280206 -0.057256877 0.012725716 -0.054425675
-0.14137618 -0.10147634 0.048653986 -0.114649095 0.014091962 -0.074890465 -0.10868007 -0.13775782
-0.15540998 -0.101807415 -0.12724328 -0.08613469 -0.060849003 -0.123636395 -0.029094923 -0.07886117
-0.104805544 -0.03301246 -0.17573634 -0.10656904 -0.090966925 -0.098632656 -0.09350246 -0.12577373
-0.068580315 -0.15114541 -0.089123644 -0.06370708 -0.049346022 -0.1478486 -0.0688769 -0.11068936

cnn.10.running_var f4 [128]
00000000: 6db2 a33c 21e1 983c 70eb a83c 909b 993b
00000010: 5af3 983c 1769 f53c e7e1 df3c 8c77 c23c
00000020: d948 d73c 6e7c 833c 5cb3 e43c 7563 d63c
00000030: 4932 a63c b618 a53c 6c89 8b3c 78dc b03c
00000040: e673 8a3c 953e 253c e6c7 943c 971e cb3c
00000050: 1d91 773c 4824 953c e3e4 a33c 31d9 6f3c
00000060: 2a31 b23c 11f0 b53c a1d8 e13c 3797 cf3c
00000070: 5dd9 913b 3994 c23b c17f 0b3d bd65 e13c
00000080: d039 923b 606d c63c eaf5 413c b639 553c
00000090: 01c7 0c3d 5ac3 043d 2dbd b43c 7a3a ac3c
000000a0: 173a bc3c c1ec af3c 0dd9 003d 7e0d ac3c
000000b0: 0bde 9d3c 400c c33c 44d3 ca3c b25d b73c
000000c0: d9ea cf3c 105c ef3c fbe6 ae3c 150b a63c
000000d0: 9972 0f3d 2a4f 003d e863 673c 2128 a03c
000000e0: 7640 ab3c 04f2 243c 6f30 6b3c 658f ef3c
000000f0: b2b9 c93c e95c ef3c 99cf a33c caf5 d53c
00000100: 9464 d33c 9358 c63c 3012 943c 7259 f53c
00000110: e3aa 093d fc1e b83c fd7f 413c 44a2 bd3c
00000120: b7b0 c53c de9e d13c d079 d33c 7e3a 583c
00000130: c445 583c b3a7 c23c b3e5 f53c ea68 d93c
00000140: fe0c 2c3c c3c7 e03c 4872 143c e906 953c
00000150: 3381 d73c 6c0d a13c 8b34 9b3c 286f b43c
00000160: bacc e43c 5093 c93c dfa1 bc3c dc37 b33c
00000170: 7582 b83c afd9 893c d413 3a3c 245b 473c
00000180: 5802 593c 9899 db3c 1257 eb3b 8175 c43c
00000190: e53d 1b3c f47a c13c 07e2 b83c eaed 8e3c
000001a0: 3da2 d93c 8586 ac3c 5a57 703c 46f2 6e3c
000001b0: 4288 073c 9889 e23c 065c 1b3c f4d7 ab3c
000001c0: 1223 ed3c 60e7 fc3b dce1 bc3c 1f8d a43c
000001d0: aebf c53c b005 773c 42f6 8a3c fd07 5e3c
000001e0: 1860 c13c 2197 133d 0f82 bd3c 172e da3c
000001f0: 4bcb a33c 5754 cf3c b1be 473c 9842 343c
0.019982541 0.018662037 0.020620078 0.004687734 0.018670727 0.029957337 0.027329398 0.023738645
0.026279854 0.016050544 0.027917556 0.026170472 0.02028765 0.020153385 0.017033301 0.021589503
0.016900968 0.0100857215 0.018161725 0.02479486 0.015110281 0.018205777 0.020006603 0.014639185
0.021751959 0.0222092 0.027569117 0.02534066 0.0044509606 0.0059380797 0.034057382 0.027514333
0.004462458 0.024222076 0.011838416 0.013014248 0.034369472 0.032412864 0.022062862 0.021023978
0.022976918 0.021475198 0.031456996 0.021002527 0.019270917 0.023809552 0.024758942 0.022383545
0.025380539 0.029218704 0.021350374 0.020268956 0.0350214 0.031325497 0.014122941 0.019550385
0.02090476 0.010067467 0.014354809 0.02924318 0.02462468 0.029219108 0.019996451 0.026118178
0.025804795 0.024212157 0.018075079 0.029949877 0.033610236 0.022475712 0.0118103 0.023148663
0.024132116 0.02558845 0.02581492 0.013197539 0.013200227 0.023761606 0.030016756 0.026539285
0.010501144 0.027439004 0.00906045 0.018191772 0.026306724 0.01965972 0.018945953 0.02202566
0.027929652 0.024606377 0.023026405 0.021877222 0.022523144 0.016827432 0.011357266 0.012167726
0.013245188 0.026806638 0.0071820104 0.023981811 0.009475206 0.023618199 0.022568716 0.01744743
0.026566619 0.021060238 0.014669264 0.01458413 0.0082722325 0.0276535 0.009482389 0.020976998
0.028947387 0.0077180117 0.023056917 0.020086823 0.024139252 0.01507704 0.016963128 0.013551709
0.023605391 0.0360328 0.023133306 0.026633305 0.019994399 0.025308771 0.0121914605 0.011002205

cnn.13.weight f4 [256, 128, 3]
00000000: 8ea2 a73c 3a1f 243c 6fcb 323c 5bf2 f83a
00000010: 2488 d73a ce06 813b 3147 603c 7ccf 473c
00000020: bc3a f33b 7e39 36ba b9e2 5eb9 46ed 453b
00000030: 2a55 ebbb ac0e 26ba 42d8 52ba 686c 733c
00000040: ee49 203c c4a6 273c ae25 ebbb cd44 b5bb
00000050: 8e14 4bbc 4727 12bc 0208 1cbc 85ba dcbb
00000060: d708 9e3c 30fe a23c 4b69 af3c e85c 063b
00000070: a0ff 883b 5f8d a43b cb93 deba 44f8 c2bb
00000080: a103 05bc b3d0 e1bb cd5b 5fbb ae98 2ebc
00000090: 1206 6cbc 6226 4ebc a4be 3bbc 58f9 c73b
000000a0: dc23 ae3b f12e 163b ec0e 25bc d018 04bc
000000b0: bc5f e4bb 70a4 8c3a a5dc c03b 5e38 acbb
000000c0: 752a 52bb 2e8f 86bb 778a bebb d9a2 203c
000000d0: f09f f03b 020f a23b 6ffd d63a 4dd5 1f3b
000000e0: ddcf 833b 7543 6c3c 113f 0f3c 76ab 133c
000000f0: 33bd 07bc 14d4 91bb a89f 1abc 2575 2e3b
00000100: 9892 453b ef37 cd3a 391c 1d3c 9cd6 6d3b
00000110: ddd9 9c3b a14d 063c 4aeb 383c fca8 db3b
00000120: 1a05 a0bb e2b1 e2bb 5885 babb 9bca 1abb
00000130: 973a cdbb 7dc4 0ebc 36ad 343c 32b0 523c
00000140: be11 013b 82be a9b9 fc73 c8bb 72a9 693b
00000150: 8610 38bb 66a1 5dbb ae85 96bb 00b7 64bb
00000160: ef2f aebb f101 feba 77ce 43bc 06a9 05bc
00000170: a080 c5bb 7ec7 ba3b a9fc b73a 9014 c93b
00000180: 55aa d5ba 9fdf a93a 88fa 75b9 e29e 93bb
00000190: c2e7 94ba 0a0a 18bc f0de 203c c892 da3b
000001a0: 1884 0f3c b779 243c 2530 153c 6892 1dbb
000001b0: 197b 4fbc 309d 06bb 4c53 27bc 43da 503c
000001c0: 150e 1a3c efe3 be3b 6675 173c 1f82 eb3b
000001d0: ccb1 143c e042 e1bb bbde e9ba 1176 11bc
000001e0: 6950 07bc 0204 4abc 6574 1bbc c4d5 ac3b
000001f0: dbf1 8c3b d0c7 ee3b e3d3 b93a b5aa bdb9
00000200: fafc baba 69da 5b3b 8915 88ba e99c 38bb
00000210: 0b59 52bc 37ac e5bb a4c4 e4bb 093f 17bc
00000220: e97d 1ebc a752 d0bb 5c0c b93b 33bb bcba
00000230: 7278 683b 6f09 96bb f02f f8bb 92de a6bb
00000240: 20df 6abc 7e6a edbb f496 9fbb fbbf 773b
00000250: 5243 3a3a 11f8 cf3b 3459 71bb 88cc 66bb
00000260: 752b 25bc b671 28bc c7e5 28bb 8891 0dbc
00000270: bceb e23b 8e00 2e3c ef4e 653b 800c 093c
00000280: 14b2 043c 7c10 c03b d12b e93a d38f 5d39
00000290: 11c8 d93a b1e5 8cbb fa03 43bc 9e4b aabb
000002a0: ac08 3d3b 6b1c 17bb 8bd5 163a b856 5a3b
000002b0: 79f0 113b 8054 6f3b 0bfe 0a3a 2715 32ba
000002c0: c264 02bb a7a6 ea3b 4072 c43b b557 813c
000002d0: 9f13 9bbb 6f28 f6bb 51dc f0bb 4400 ba3a
000002e0: bccc 3c3b 4488 853a 24b2 c33b 55b5 113c
000002f0: e20f 383c 0170 073c db96 8e3a 7756 1b3c
00000300: d47f 3fba a5cc 7e3b 9987 b2bb 56f7 40bc
00000310: 81ef 87bc 1d7d 80bc f3ea 603c 1f73 063c
00000320: a10f 9f3b 1435 9cbb 5ccf e8bb dde1 cdbb
00000330: c1f2 fd3b b47f d73b 0d0e d93b 2931 cdbb
00000340: c7e0 a4bb 7e40 9abb 0fa9 1c3c 1ed3 543c
00000350: 4971 103c a575 a1bb a0a5 21bc cf13 1abc
00000360: 5a10 29bc 4b10 36bc f9a2 3cbc b5d3 65bb
00000370: c7bf 86bb ed75 3a3a f360 9a3b 030d 033c
00000380: e92b e13b ac3a e5bb dc09 3dbb cf92 fabb
00000390: 8964 56ba 12d6 8f3a 1a31 003a 11dc 4b3c
000003a0: 84f7 9f3b 1198 bc3b d519 3dbc 5f1e 37bc
000003b0: 083a 05bc 65f6 3a3c bdfe 233c 811e e73a
000003c0: 6597 643a cc4e d9ba 86a3 0f3b 51cc 29bc
000003d0: 2242 0bbc 0919 01bc 0386 bf3b b622 6b3b
000003e0: 43ad c939 6433 283c 85bc 333c 96c2 853c
000003f0: f007 0ebc bf5b 76bb 2fcb e1ba 5f05 21bc
0.020463254 0.010017211 0.01091276 0.0018993126 0.0016443771 0.0039375788 0.013688848 0.012195464
0.007422773 -0.0006951316 -0.0002125603 0.003020124 -0.007181783 -0.0006334584 -0.0008043089 0.014857389
0.009783251 0.010232631 -0.0071761226 -0.0055318833 -0.012395037 -0.008920497 -0.009523394 -0.006736102
0.019291325 0.019896597 0.021412512 0.0020502154 0.0041808635 0.0050217356 -0.0016981302 -0.0059500057
-0.008118541 -0.006891334 -0.0034081817 -0.010656519 -0.014405744 -0.012582393 -0.0114590265 0.006102722
0.0053143334 0.0022916163 -0.010074358 -0.008062556 -0.0069694202 0.0010730159 0.005885678 -0.005255743
-0.0032068763 -0.004106424 -0.005814846 0.009804451 0.007343285 0.0049456367 0.0016402433 0.0024388612
0.004022582 0.01442038 0.008743064 0.009013047 -0.008284855 -0.0044503305 -0.009437479 0.0026620117
0.003014719 0.0015656928 0.009589248 0.0036291247 0.0047867135 0.008197219 0.011286566 0.006703494
-0.0048834207 -0.006918178 -0.0056921653 -0.0023619297 -0.006263088 -0.008713839 0.011027625 0.012859391
0.0019694413 -0.0003237613 -0.006117342 0.0035653976 -0.002808602 -0.0033818125 -0.0045935726 -0.0034899116
-0.0053157727 -0.0019379241 -0.0119510805 -0.008157974 -0.006027296 0.005700051 0.0014037091 0.0061364844
-0.0016301373 0.0012960321 -0.00023458351 -0.0045050243 -0.0011360573 -0.009279737 0.009818777 0.0066703297
0.008759521 0.010038785 0.009105717 -0.0024043564 -0.012663626 -0.0020540468 -0.010212731 0.01274735
0.0094027715 0.0058255116 0.009244299 0.0071871425 0.009075593 -0.006874427 -0.0017842868 -0.008878247
-0.008258917 -0.012330057 -0.0094882 0.0052745063 0.0043012924 0.007287003 0.0014177527 -0.00036176076
-0.0014266067 0.003354693 -0.0010382395 -0.0028169698 -0.012838612 -0.007009055 -0.006981449 -0.009231337
-0.009673574 -0.006357509 0.0056472253 -0.0014399051 0.0035472182 -0.0045787613 -0.007574074 -0.0050924504
-0.014335424 -0.007245361 -0.00487029 0.0037803638 0.00071053684 0.0063467105 -0.003682685 -0.0035217125
-0.010081162 -0.010281017 -0.0025771724 -0.008640654 0.0069250744 0.010620249 0.0034989675 0.008364797
0.008099098 0.00586134 0.0017789548 0.00021129781 0.001661541 -0.0042998423 -0.011902804 -0.0051970026
0.002884428 -0.002305771 0.0005753866 0.0033315849 0.0022268577 0.0036518872 0.00053021376 -0.0006793313
-0.0019896482 0.00716098 0.005995065 0.015788892 -0.0047325636 -0.0075121443 -0.0073504825 0.0014190753
0.0028808555 0.0010187705 0.0059721638 0.008893331 0.0112342555 0.00826645 0.0010878699 0.009481064
-0.00073051197 0.0038879302 -0.0054482934 -0.0117777195 -0.016593697 -0.015684659 0.013727891 0.008206158
0.004854158 -0.0047670696 -0.0071047973 -0.0062830285 0.007749886 0.0065765027 0.0066239894 -0.006261964
-0.0050316784 -0.004707395 0.009561791 0.012989787 0.008816072 -0.0049273544 -0.009866148 -0.009404137
-0.01031884 -0.011112283 -0.011513465 -0.0035068814 -0.004112217 0.0007112909 0.0047112643 0.007998708
0.0068716896 -0.0069955196 -0.0028844988 -0.0076468955 -0.0008178433 0.0010973832 0.0004890129 0.012442605
0.004881801 0.0057554324 -0.011541803 -0.011176675 -0.0081315115 0.011411284 0.010009465 0.0017632992
0.00087200693 -0.001657927 0.0021917536 -0.010363654 -0.008499654 -0.007879504 0.005844833 0.0035878844
0.00038466798 0.010266159 0.0109702395 0.016328137 -0.008668885 -0.0037591306 -0.0017226691 -0.009827941

cnn.14.weight f4 [256]
00000000: 838e 9b3e cc64 063f a85c a03e 382e a73e
00000010: 4c39 a73e 0e59 6a3e c462 cf3e 2b73 c43e
00000020: 0cd7 ba3e 5acb 003f c674 c03e 3885 b63e
00000030: 31e7 e13e 1e35 943e 871c d03e 37f8 b43e
00000040: be28 db3e b1c3 8b3e 6462 b13e 4d40 9f3e
00000050: 61d4 f43e 7871 b23e 40db ad3e 408f ff3e
00000060: d880 d93e 5a46 c43e b5e1 b33e 91a1 d03e
00000070: 181b e03e 9238 b83e 7b17 cf3e d5ed be3e
00000080: 3219 a53e 1935 eb3e 718a d93e fd49 933e
00000090: 0ff1 cb3e d3a4 c33e 7958 e53e 80b6 963e
000000a0: e3e9 c83e 518a f03e 9650 9f3e 50b8 ca3e
000000b0: 6629 a23e 1cc1 923e e928 033f c240 c33e
000000c0: cffa d23e 6e34 933e f9ae 5f3e 73c8 a73e
000000d0: e4fd d73e f832 f63e 82ea b43e 55d2 a13e
000000e0: 074b de3e e147 8f3e bbc9 a93e 52c0 b53e
000000f0: c582 bd3e bf3a 953e 86aa c93e 01fd a23e
00000100: d1e7 e73e 5858 bd3e c075 be3e 9712 c03e
00000110: 4351 753e 6f3a 983e 1322 ae3e 5d12 a33e
00000120: a99b a23e d4a0 a53e d0e0 a73e 420f 923e
00000130: 6d00 ea3e ee2b bf3e 0c1a 9d3e c36a ce3e
00000140: 7f89 033f 826d ad3e 52e9 c23e 1342 883e
00000150: c273 873e a7eb b03e 6535 933e 457d a33e
00000160: 8711 873e af0d 883e 24b2 8d3e db72 b13e
00000170: d83c f63e 512f 8f3e 1bc0 8f3e 81db 793e
00000180: 218b ad3e c0f8 a03e 6ab1 a43e 05e2 a93e
00000190: ccfe d23e fdff ad3e 161c ef3e 2ce8 a93e
000001a0: de8d b23e 2216 9d3e 21b0 bc3e 73bc a73e
000001b0: c6f5 103f 972e 9f3e 5b3f ab3e de93 033f
000001c0: d586 933e d7ce 923e a20b fc3e b37d c23e
000001d0: a15b db3e 5b8a c83e 9a59 833e 4fb6 bc3e
000001e0: dfa2 833e 7585 4c3e 95b3 e63e cd9a 863e
000001f0: 7ada a43e b689 a73e 930a 8f3e 7528 a93e
00000200: 69af e53e 4870 e03e fbb9 b43e 0a07 9b3e
00000210: cdde fe3e 3967 893e 0d68 aa3e 7de6 e33e
00000220: 5d39 8d3e 3b91 e93e bbb4 a23e c352 ad3e
00000230: 5a13 e23e 70f3 ac3e c12e 8d3e c7d7 c93e
00000240: 11ed b53e 4d10 7f3e f1b9 963e dead a83e
00000250: 85e7 893e 445a 943e 9ba1 be3e c0d5 063f
00000260: 248c 7e3e 70cc de3e 56d7 9f3e 4a8a f33e
00000270: b61f cd3e 6fb9 9c3e 7621 be3e a98e aa3e
00000280: 0c7b f23e 0563 8c3e c162 c63e 8545 8d3e
00000290: ebf6 9a3e 840f d23e 615c d33e 0c93 ca3e
000002a0: 66ce 913e 90ef 8f3e fbda 873e 6914 c93e
000002b0: 5186 b53e b445 ff3e 89fb ac3e b29f 983e
000002c0: f414 a73e 9e75 a53e 9e8b 8e3e f4b2 f73e
000002d0: 287e d83e be77 a43e ada1 873e 3bf6 b93e
000002e0: cda0 823e 9547 b73e f7f4 903e 7560 9f3e
000002f0: 2312 c13e cc4c a93e 58f1 df3e 1b99 833e
00000300: bc5a fb3e 4d0f ef3e 1141 db3e f63e 923e
00000310: 326d f53e 7ab7 9a3e 8a2e ad3e d3e8 de3e
00000320: 8a7d 813e eac6 023f 82c2 d03e 08a9 e03e
00000330: 2cf4 993e 9e1b c73e 54c7 733e e82a e23e
00000340: 1ffe 9e3e bd18 ce3e 6f73 b23e ecc3 8d3e
00000350: dee9 a03e dadd b93e aa34 ec3e f0d0 b23e
00000360: 3a55 bb3e d4e9 9a3e 8930 b13e c76c e83e
00000370: cc9a 8e3e 5b22 ae3e 1835 073f f6e7 ba3e
00000380: 69f6 e13e f190 db3e 0f54 943e 8046 a43e
00000390: 88d1 bd3e f939 de3e bc84 b03e 838a 983e
000003a0: ea2e 943e 4931 a63e 71b0 c93e 5a41 7f3e
000003b0: bb68 a93e f85d a33e 01bf 8d3e 627f 983e
000003c0: 6758 963e 6ef1 c83e 1006 e43e f207 e33e
000003d0: 0730 b63e 2448 a43e 5aaf a53e 5afd 8c3e
000003e0: a498 c03e 3cdc ed3e 7ac6 af3e 391d e33e
000003f0: 0d93 013f 1700 c53e 3052 d43e ed1a ba3e
0.30382165 0.52497554 0.3132069 0.3265245 0.32660902 0.22885534 0.4050504 0.38369116
0.36492193 0.5031029 0.3758909 0.35648513 0.44121698 0.28946775 0.40646765 0.35345623
0.4280452 0.27297738 0.3464538 0.31103745 0.47818282 0.34852195 0.33956337 0.4991398
0.42481112 0.38334924 0.35133138 0.40748265 0.4377067 0.3598066 0.40447602 0.37290826
0.32245785 0.45938948 0.42488435 0.28767386 0.3983235 0.38211688 0.44794062 0.2943611
0.3924094 0.46980527 0.3111617 0.39593744 0.3167221 0.28662956 0.512343 0.38135344
0.41206977 0.28750938 0.2184409 0.32770118 0.4218589 0.4808576 0.35335165 0.31605783
0.43416616 0.27984527 0.3316172 0.3549829 0.37013832 0.29146382 0.39387912 0.31833652
0.4529405 0.36981463 0.3719921 0.37514183 0.2395678 0.2973208 0.34010372 0.31849948
0.31759384 0.32349265 0.32788706 0.28527266 0.4570345 0.37338203 0.30683935 0.40315828
0.5138168 0.3387261 0.38068634 0.2661291 0.26455504 0.34554788 0.28751674 0.3193151
0.2638056 0.2657294 0.27674973 0.3465794 0.48093295 0.27965787 0.28076252 0.2440014
0.3389521 0.3143978 0.32166606 0.33180252 0.4121002 0.33984366 0.46701115 0.33184946
0.3487386 0.30680948 0.36853126 0.32760963 0.5662502 0.31090233 0.33446774 0.513975
0.28813806 0.2867343 0.49227625 0.37986526 0.42843345 0.39168057 0.25654298 0.3685784
0.25710198 0.19972785 0.45058885 0.2628998 0.32197934 0.32722253 0.27937755 0.3303868
0.4486039 0.43835664 0.35298142 0.30278808 0.49779359 0.26836565 0.3328251 0.44511786
0.27582827 0.45618615 0.3177851 0.33852205 0.4415539 0.33779478 0.27574733 0.39422438
0.3553243 0.24908562 0.29438737 0.3294515 0.26934448 0.28975117 0.3723267 0.52669907
0.24858147 0.43515348 0.31218976 0.47566444 0.40063256 0.30610225 0.37134904 0.33311966
0.47359502 0.27419296 0.38747218 0.27592102 0.30266508 0.41027462 0.41281417 0.39565313
0.28477782 0.2811246 0.26534256 0.39273384 0.35454038 0.49857867 0.33785656 0.29809338
0.32633173 0.32316297 0.27840894 0.48378718 0.4228375 0.32122606 0.26490536 0.3632067
0.25513306 0.357968 0.28311893 0.31128278 0.3770915 0.33066404 0.43738818 0.25702748
0.49092662 0.4669136 0.4282308 0.2856366 0.47934872 0.30218107 0.3382457 0.43537006
0.2529109 0.5108477 0.40773398 0.4387896 0.300691 0.38888258 0.23806506 0.4417336
0.31053254 0.4025325 0.34853694 0.2768854 0.31428427 0.36302072 0.4613393 0.34925032
0.3658846 0.30256522 0.34607342 0.4539549 0.27852476 0.34010586 0.5281539 0.36505097
0.4413331 0.4288402 0.28970382 0.32085037 0.37073922 0.43403605 0.34476268 0.29793176
0.28942043 0.32459477 0.39392427 0.24927273 0.33087716 0.3190763 0.27684787 0.29784685
0.2936432 0.39246696 0.44535875 0.44342 0.35583517 0.3208629 0.32360345 0.27537042
0.37616456 0.46457088 0.34331113 0.44358233 0.50615007 0.3847663 0.41468954 0.36348668
